<?xml version="1.0"?>
<net name="TensorFlow_Frontend_IR" version="11">
	<layers>
		<layer id="0" name="input_tensor" type="Parameter" version="opset1">
			<data shape="1,?,?,3" element_type="u8" />
			<output>
				<port id="0" precision="U8" names="input_tensor">
					<dim>1</dim>
					<dim>-1</dim>
					<dim>-1</dim>
					<dim>3</dim>
				</port>
			</output>
		</layer>
		<layer id="1" name="Constant_11500" type="Const" version="opset1">
			<data element_type="i32" shape="" offset="0" size="4" />
			<output>
				<port id="0" precision="I32" />
			</output>
		</layer>
		<layer id="2" name="map/while/LogicalAnd" type="Const" version="opset1">
			<data element_type="boolean" shape="" offset="4" size="1" />
			<output>
				<port id="0" precision="BOOL" />
			</output>
		</layer>
		<layer id="3" name="map/while/loop_counter" type="Const" version="opset1">
			<data element_type="i32" shape="" offset="5" size="4" />
			<output>
				<port id="0" precision="I32" />
			</output>
		</layer>
		<layer id="4" name="map/while/maximum_iterations" type="Const" version="opset1">
			<data element_type="i32" shape="" offset="9" size="4" />
			<output>
				<port id="0" precision="I32" />
			</output>
		</layer>
		<layer id="5" name="map/Const" type="Const" version="opset1">
			<data element_type="i32" shape="" offset="5" size="4" />
			<output>
				<port id="0" precision="I32" />
			</output>
		</layer>
		<layer id="6" name="map/TensorArrayV2_1" type="Const" version="opset1">
			<data element_type="f32" shape="0, 0" offset="13" size="1" />
			<output>
				<port id="0" precision="FP32">
					<dim>0</dim>
					<dim>0</dim>
				</port>
			</output>
		</layer>
		<layer id="7" name="map/TensorArrayV2_2" type="Const" version="opset1">
			<data element_type="i32" shape="0, 0" offset="13" size="1" />
			<output>
				<port id="0" precision="I32">
					<dim>0</dim>
					<dim>0</dim>
				</port>
			</output>
		</layer>
		<layer id="8" name="map/while" type="Loop" version="opset5">
			<port_map>
				<input external_port_id="2" internal_layer_id="5" />
				<input external_port_id="3" internal_layer_id="4" />
				<input external_port_id="4" internal_layer_id="3" />
				<input external_port_id="5" internal_layer_id="2" />
				<input external_port_id="6" internal_layer_id="1" />
				<input external_port_id="7" internal_layer_id="0" />
				<output external_port_id="8" internal_layer_id="204" />
				<output external_port_id="9" internal_layer_id="69" />
				<output external_port_id="-1" internal_layer_id="14" purpose="execution_condition" />
			</port_map>
			<back_edges>
				<edge from-layer="207" to-layer="5" />
				<edge from-layer="206" to-layer="4" />
				<edge from-layer="205" to-layer="3" />
				<edge from-layer="204" to-layer="2" />
				<edge from-layer="69" to-layer="1" />
				<edge from-layer="15" to-layer="0" />
			</back_edges>
			<input>
				<port id="0" precision="I32" />
				<port id="1" precision="BOOL" />
				<port id="2" precision="I32" />
				<port id="3" precision="I32" />
				<port id="4" precision="I32" />
				<port id="5" precision="FP32">
					<dim>0</dim>
					<dim>0</dim>
				</port>
				<port id="6" precision="I32">
					<dim>0</dim>
					<dim>0</dim>
				</port>
				<port id="7" precision="U8">
					<dim>1</dim>
					<dim>-1</dim>
					<dim>-1</dim>
					<dim>3</dim>
				</port>
			</input>
			<output>
				<port id="8" precision="FP32">
					<dim>-1</dim>
					<dim>-1</dim>
				</port>
				<port id="9" precision="I32">
					<dim>-1</dim>
					<dim>3</dim>
				</port>
			</output>
			<body>
				<layers>
					<layer id="5" name="map_while_map_while_loop_counter" type="Parameter" version="opset1">
						<data shape="" element_type="i32" />
						<rt_info>
							<attribute name="fused_names" version="0" value="map_while_map_while_loop_counter" />
						</rt_info>
						<output>
							<port id="0" precision="I32" />
						</output>
					</layer>
					<layer id="4" name="map_while_map_while_maximum_iterations" type="Parameter" version="opset1">
						<data shape="" element_type="i32" />
						<rt_info>
							<attribute name="fused_names" version="0" value="map_while_map_while_maximum_iterations" />
						</rt_info>
						<output>
							<port id="0" precision="I32" />
						</output>
					</layer>
					<layer id="3" name="map_while_placeholder" type="Parameter" version="opset1">
						<data shape="" element_type="i32" />
						<rt_info>
							<attribute name="fused_names" version="0" value="map_while_placeholder" />
						</rt_info>
						<output>
							<port id="0" precision="I32" />
						</output>
					</layer>
					<layer id="2" name="map_while_placeholder_1" type="Parameter" version="opset1">
						<data shape="0,0" element_type="f32" />
						<rt_info>
							<attribute name="fused_names" version="0" value="map_while_placeholder_1" />
						</rt_info>
						<output>
							<port id="0" precision="FP32">
								<dim>0</dim>
								<dim>0</dim>
							</port>
						</output>
					</layer>
					<layer id="1" name="map_while_placeholder_2" type="Parameter" version="opset1">
						<data shape="?,?" element_type="i32" />
						<rt_info>
							<attribute name="fused_names" version="0" value="map_while_placeholder_2" />
						</rt_info>
						<output>
							<port id="0" precision="I32">
								<dim>-1</dim>
								<dim>-1</dim>
							</port>
						</output>
					</layer>
					<layer id="0" name="map_while_tensorarrayv2read_tensorlistgetitem_map_tensorarrayunstack_tensorlistfromtensor_0" type="Parameter" version="opset1">
						<data shape="1,?,?,3" element_type="u8" />
						<rt_info>
							<attribute name="fused_names" version="0" value="map_while_tensorarrayv2read_tensorlistgetitem_map_tensorarrayunstack_tensorlistfromtensor_0" />
						</rt_info>
						<output>
							<port id="0" precision="U8">
								<dim>1</dim>
								<dim>-1</dim>
								<dim>-1</dim>
								<dim>3</dim>
							</port>
						</output>
					</layer>
					<layer id="6" name="map/while/add_1/y" type="Const" version="opset1">
						<data element_type="i32" shape="" offset="9" size="4" />
						<rt_info>
							<attribute name="fused_names" version="0" value="map/while/add_1/y" />
						</rt_info>
						<output>
							<port id="0" precision="I32" />
						</output>
					</layer>
					<layer id="7" name="map/while/add_1" type="Add" version="opset1">
						<data auto_broadcast="numpy" />
						<rt_info>
							<attribute name="fused_names" version="0" value="map/while/add_1" />
						</rt_info>
						<input>
							<port id="0" precision="I32" />
							<port id="1" precision="I32" />
						</input>
						<output>
							<port id="2" precision="I32" />
						</output>
					</layer>
					<layer id="8" name="map/while/Less_1" type="Less" version="opset1">
						<data auto_broadcast="numpy" />
						<rt_info>
							<attribute name="fused_names" version="0" value="map/while/Less_1" />
						</rt_info>
						<input>
							<port id="0" precision="I32" />
							<port id="1" precision="I32" />
						</input>
						<output>
							<port id="2" precision="BOOL" />
						</output>
					</layer>
					<layer id="9" name="map/while/add/y" type="Const" version="opset1">
						<data element_type="i32" shape="" offset="9" size="4" />
						<rt_info>
							<attribute name="fused_names" version="0" value="map/while/add/y" />
						</rt_info>
						<output>
							<port id="0" precision="I32" />
						</output>
					</layer>
					<layer id="10" name="map/while/add" type="Add" version="opset1">
						<data auto_broadcast="numpy" />
						<rt_info>
							<attribute name="fused_names" version="0" value="map/while/add" />
						</rt_info>
						<input>
							<port id="0" precision="I32" />
							<port id="1" precision="I32" />
						</input>
						<output>
							<port id="2" precision="I32" />
						</output>
					</layer>
					<layer id="11" name="map/while/Less/y" type="Const" version="opset1">
						<data element_type="i32" shape="" offset="9" size="4" />
						<rt_info>
							<attribute name="fused_names" version="0" value="map/while/Less/y" />
						</rt_info>
						<output>
							<port id="0" precision="I32" />
						</output>
					</layer>
					<layer id="12" name="map/while/Less" type="Less" version="opset1">
						<data auto_broadcast="numpy" />
						<rt_info>
							<attribute name="fused_names" version="0" value="map/while/Less" />
						</rt_info>
						<input>
							<port id="0" precision="I32" />
							<port id="1" precision="I32" />
						</input>
						<output>
							<port id="2" precision="BOOL" />
						</output>
					</layer>
					<layer id="13" name="map/while/LogicalAnd" type="LogicalAnd" version="opset1">
						<data auto_broadcast="numpy" />
						<rt_info>
							<attribute name="fused_names" version="0" value="map/while/LogicalAnd" />
						</rt_info>
						<input>
							<port id="0" precision="BOOL" />
							<port id="1" precision="BOOL" />
						</input>
						<output>
							<port id="2" precision="BOOL" />
						</output>
					</layer>
					<layer id="16" name="Concat_9259" type="Const" version="opset1">
						<data element_type="i32" shape="2" offset="14" size="8" />
						<rt_info>
							<attribute name="fused_names" version="0" value="Concat_9259" />
						</rt_info>
						<output>
							<port id="0" precision="I32">
								<dim>2</dim>
							</port>
						</output>
					</layer>
					<layer id="17" name="Reshape_9260" type="Reshape" version="opset1">
						<data special_zero="false" />
						<rt_info>
							<attribute name="fused_names" version="0" value="Reshape_9260" />
						</rt_info>
						<input>
							<port id="0" precision="I32">
								<dim>-1</dim>
								<dim>-1</dim>
							</port>
							<port id="1" precision="I32">
								<dim>2</dim>
							</port>
						</input>
						<output>
							<port id="2" precision="I32">
								<dim>-1</dim>
								<dim>3</dim>
							</port>
						</output>
					</layer>
					<layer id="18" name="Squeeze_7079" type="Squeeze" version="opset1">
						<rt_info>
							<attribute name="fused_names" version="0" value="Squeeze_10147, Squeeze_7079, Squeeze_9252" />
						</rt_info>
						<input>
							<port id="0" precision="I32" />
						</input>
						<output>
							<port id="1" precision="I32" />
						</output>
					</layer>
					<layer id="19" name="Constant_7080" type="Const" version="opset1">
						<data element_type="i32" shape="1" offset="5" size="4" />
						<rt_info>
							<attribute name="fused_names" version="0" value="Constant_7080" />
						</rt_info>
						<output>
							<port id="0" precision="I32">
								<dim>1</dim>
							</port>
						</output>
					</layer>
					<layer id="20" name="Gather_7081" type="Gather" version="opset8">
						<data batch_dims="0" />
						<rt_info>
							<attribute name="fused_names" version="0" value="Gather_7081, map/while/TensorArrayV2Read/TensorListGetItem" />
						</rt_info>
						<input>
							<port id="0" precision="U8">
								<dim>1</dim>
								<dim>-1</dim>
								<dim>-1</dim>
								<dim>3</dim>
							</port>
							<port id="1" precision="I32" />
							<port id="2" precision="I32">
								<dim>1</dim>
							</port>
						</input>
						<output>
							<port id="3" precision="U8">
								<dim>-1</dim>
								<dim>-1</dim>
								<dim>3</dim>
							</port>
						</output>
					</layer>
					<layer id="21" name="map/while/Cast" type="Convert" version="opset1">
						<data destination_type="f32" />
						<rt_info>
							<attribute name="fused_names" version="0" value="map/while/Cast" />
						</rt_info>
						<input>
							<port id="0" precision="U8">
								<dim>-1</dim>
								<dim>-1</dim>
								<dim>3</dim>
							</port>
						</input>
						<output>
							<port id="1" precision="FP32">
								<dim>-1</dim>
								<dim>-1</dim>
								<dim>3</dim>
							</port>
						</output>
					</layer>
					<layer id="22" name="map/while/strided_slice/stack" type="Const" version="opset1">
						<data element_type="i32" shape="4" offset="22" size="16" />
						<rt_info>
							<attribute name="fused_names" version="0" value="map/while/strided_slice/stack" />
						</rt_info>
						<output>
							<port id="0" precision="I32">
								<dim>4</dim>
							</port>
						</output>
					</layer>
					<layer id="23" name="map/while/strided_slice/stack_1" type="Const" version="opset1">
						<data element_type="i32" shape="4" offset="22" size="16" />
						<rt_info>
							<attribute name="fused_names" version="0" value="map/while/strided_slice/stack_1" />
						</rt_info>
						<output>
							<port id="0" precision="I32">
								<dim>4</dim>
							</port>
						</output>
					</layer>
					<layer id="24" name="map/while/strided_slice/stack_2" type="Const" version="opset1">
						<data element_type="i32" shape="4" offset="38" size="16" />
						<rt_info>
							<attribute name="fused_names" version="0" value="map/while/strided_slice/stack_2" />
						</rt_info>
						<output>
							<port id="0" precision="I32">
								<dim>4</dim>
							</port>
						</output>
					</layer>
					<layer id="25" name="map/while/strided_slice" type="StridedSlice" version="opset1">
						<data begin_mask="0, 1, 1, 1" end_mask="0, 1, 1, 1" new_axis_mask="1, 0, 0, 0" shrink_axis_mask="0, 0, 0, 0" ellipsis_mask="0, 0, 0, 0" />
						<rt_info>
							<attribute name="fused_names" version="0" value="map/while/strided_slice" />
						</rt_info>
						<input>
							<port id="0" precision="FP32">
								<dim>-1</dim>
								<dim>-1</dim>
								<dim>3</dim>
							</port>
							<port id="1" precision="I32">
								<dim>4</dim>
							</port>
							<port id="2" precision="I32">
								<dim>4</dim>
							</port>
							<port id="3" precision="I32">
								<dim>4</dim>
							</port>
						</input>
						<output>
							<port id="4" precision="FP32">
								<dim>1</dim>
								<dim>-1</dim>
								<dim>-1</dim>
								<dim>3</dim>
							</port>
						</output>
					</layer>
					<layer id="26" name="Constant_174667" type="Const" version="opset1">
						<data element_type="f32" shape="1, 1, 1, 3" offset="54" size="12" />
						<rt_info>
							<attribute name="fused_names" version="0" value="Split_7089, map/while/Preprocessor/truediv, map/while/Preprocessor/truediv/y, map/while/Preprocessor/truediv_1, map/while/Preprocessor/truediv_1/y" />
						</rt_info>
						<output>
							<port id="0" precision="FP32">
								<dim>1</dim>
								<dim>1</dim>
								<dim>1</dim>
								<dim>3</dim>
							</port>
						</output>
					</layer>
					<layer id="27" name="Multiply_169493" type="Multiply" version="opset1">
						<data auto_broadcast="numpy" />
						<rt_info>
							<attribute name="fused_names" version="0" value="Split_7089, map/while/Preprocessor/sub, map/while/Preprocessor/sub/y, map/while/Preprocessor/truediv, map/while/Preprocessor/truediv/y, map/while/Preprocessor/truediv_1, map/while/Preprocessor/truediv_1/y" />
						</rt_info>
						<input>
							<port id="0" precision="FP32">
								<dim>1</dim>
								<dim>-1</dim>
								<dim>-1</dim>
								<dim>3</dim>
							</port>
							<port id="1" precision="FP32">
								<dim>1</dim>
								<dim>1</dim>
								<dim>1</dim>
								<dim>3</dim>
							</port>
						</input>
						<output>
							<port id="2" precision="FP32">
								<dim>1</dim>
								<dim>-1</dim>
								<dim>-1</dim>
								<dim>3</dim>
							</port>
						</output>
					</layer>
					<layer id="28" name="Constant_174668" type="Const" version="opset1">
						<data element_type="f32" shape="1, 1, 1, 3" offset="66" size="12" />
						<rt_info>
							<attribute name="fused_names" version="0" value="Split_7089, map/while/Preprocessor/sub, map/while/Preprocessor/sub/y, map/while/Preprocessor/truediv_1, map/while/Preprocessor/truediv_1/y" />
						</rt_info>
						<output>
							<port id="0" precision="FP32">
								<dim>1</dim>
								<dim>1</dim>
								<dim>1</dim>
								<dim>3</dim>
							</port>
						</output>
					</layer>
					<layer id="29" name="map/while/Preprocessor/truediv_1" type="Add" version="opset1">
						<data auto_broadcast="numpy" />
						<rt_info>
							<attribute name="fused_names" version="0" value="Split_7089, map/while/Preprocessor/sub, map/while/Preprocessor/sub/y, map/while/Preprocessor/truediv_1, map/while/Preprocessor/truediv_1/y" />
						</rt_info>
						<input>
							<port id="0" precision="FP32">
								<dim>1</dim>
								<dim>-1</dim>
								<dim>-1</dim>
								<dim>3</dim>
							</port>
							<port id="1" precision="FP32">
								<dim>1</dim>
								<dim>1</dim>
								<dim>1</dim>
								<dim>3</dim>
							</port>
						</input>
						<output>
							<port id="2" precision="FP32">
								<dim>1</dim>
								<dim>-1</dim>
								<dim>-1</dim>
								<dim>3</dim>
							</port>
						</output>
					</layer>
					<layer id="30" name="Constant_7088" type="Const" version="opset1">
						<data element_type="i64" shape="" offset="78" size="8" />
						<rt_info>
							<attribute name="fused_names" version="0" value="Constant_7088" />
						</rt_info>
						<output>
							<port id="0" precision="I64" />
						</output>
					</layer>
					<layer id="31" name="Squeeze_7090" type="Squeeze" version="opset1">
						<rt_info>
							<attribute name="fused_names" version="0" value="Squeeze_7090" />
						</rt_info>
						<input>
							<port id="0" precision="FP32">
								<dim>1</dim>
								<dim>-1</dim>
								<dim>-1</dim>
								<dim>3</dim>
							</port>
							<port id="1" precision="I64" />
						</input>
						<output>
							<port id="2" precision="FP32">
								<dim>-1</dim>
								<dim>-1</dim>
								<dim>3</dim>
							</port>
						</output>
					</layer>
					<layer id="32" name="map/while/Preprocessor/ResizeToRange/Shape" type="ShapeOf" version="opset3">
						<data output_type="i32" />
						<rt_info>
							<attribute name="fused_names" version="0" value="map/while/Preprocessor/ResizeToRange/Shape, map/while/Preprocessor/ResizeToRange/Shape_1" />
						</rt_info>
						<input>
							<port id="0" precision="FP32">
								<dim>-1</dim>
								<dim>-1</dim>
								<dim>3</dim>
							</port>
						</input>
						<output>
							<port id="1" precision="I32">
								<dim>3</dim>
							</port>
						</output>
					</layer>
					<layer id="33" name="map/while/Preprocessor/ResizeToRange/strided_slice/stack" type="Const" version="opset1">
						<data element_type="i32" shape="1" offset="5" size="4" />
						<rt_info>
							<attribute name="fused_names" version="0" value="map/while/Preprocessor/ResizeToRange/strided_slice/stack" />
						</rt_info>
						<output>
							<port id="0" precision="I32">
								<dim>1</dim>
							</port>
						</output>
					</layer>
					<layer id="34" name="map/while/Preprocessor/ResizeToRange/strided_slice/stack_1" type="Const" version="opset1">
						<data element_type="i32" shape="1" offset="9" size="4" />
						<rt_info>
							<attribute name="fused_names" version="0" value="map/while/Preprocessor/ResizeToRange/strided_slice/stack_1" />
						</rt_info>
						<output>
							<port id="0" precision="I32">
								<dim>1</dim>
							</port>
						</output>
					</layer>
					<layer id="35" name="map/while/Preprocessor/ResizeToRange/strided_slice/stack_2" type="Const" version="opset1">
						<data element_type="i32" shape="1" offset="9" size="4" />
						<rt_info>
							<attribute name="fused_names" version="0" value="map/while/Preprocessor/ResizeToRange/strided_slice/stack_2" />
						</rt_info>
						<output>
							<port id="0" precision="I32">
								<dim>1</dim>
							</port>
						</output>
					</layer>
					<layer id="36" name="map/while/Preprocessor/ResizeToRange/strided_slice" type="StridedSlice" version="opset1">
						<data begin_mask="0" end_mask="0" new_axis_mask="0" shrink_axis_mask="1" ellipsis_mask="0" />
						<rt_info>
							<attribute name="fused_names" version="0" value="map/while/Preprocessor/ResizeToRange/strided_slice, map/while/Preprocessor/ResizeToRange/strided_slice/stack, map/while/Preprocessor/ResizeToRange/strided_slice/stack_1, map/while/Preprocessor/ResizeToRange/strided_slice/stack_2" />
						</rt_info>
						<input>
							<port id="0" precision="I32">
								<dim>3</dim>
							</port>
							<port id="1" precision="I32">
								<dim>1</dim>
							</port>
							<port id="2" precision="I32">
								<dim>1</dim>
							</port>
							<port id="3" precision="I32">
								<dim>1</dim>
							</port>
						</input>
						<output>
							<port id="4" precision="I32" />
						</output>
					</layer>
					<layer id="37" name="map/while/Preprocessor/ResizeToRange/strided_slice_1/stack" type="Const" version="opset1">
						<data element_type="i32" shape="1" offset="9" size="4" />
						<rt_info>
							<attribute name="fused_names" version="0" value="map/while/Preprocessor/ResizeToRange/strided_slice_1/stack" />
						</rt_info>
						<output>
							<port id="0" precision="I32">
								<dim>1</dim>
							</port>
						</output>
					</layer>
					<layer id="38" name="map/while/Preprocessor/ResizeToRange/strided_slice_1/stack_1" type="Const" version="opset1">
						<data element_type="i32" shape="1" offset="86" size="4" />
						<rt_info>
							<attribute name="fused_names" version="0" value="map/while/Preprocessor/ResizeToRange/strided_slice_1/stack_1" />
						</rt_info>
						<output>
							<port id="0" precision="I32">
								<dim>1</dim>
							</port>
						</output>
					</layer>
					<layer id="39" name="map/while/Preprocessor/ResizeToRange/strided_slice_1/stack_2" type="Const" version="opset1">
						<data element_type="i32" shape="1" offset="9" size="4" />
						<rt_info>
							<attribute name="fused_names" version="0" value="map/while/Preprocessor/ResizeToRange/strided_slice_1/stack_2" />
						</rt_info>
						<output>
							<port id="0" precision="I32">
								<dim>1</dim>
							</port>
						</output>
					</layer>
					<layer id="40" name="map/while/Preprocessor/ResizeToRange/strided_slice_1" type="StridedSlice" version="opset1">
						<data begin_mask="0" end_mask="0" new_axis_mask="0" shrink_axis_mask="1" ellipsis_mask="0" />
						<rt_info>
							<attribute name="fused_names" version="0" value="map/while/Preprocessor/ResizeToRange/strided_slice_1, map/while/Preprocessor/ResizeToRange/strided_slice_1/stack, map/while/Preprocessor/ResizeToRange/strided_slice_1/stack_1, map/while/Preprocessor/ResizeToRange/strided_slice_1/stack_2" />
						</rt_info>
						<input>
							<port id="0" precision="I32">
								<dim>3</dim>
							</port>
							<port id="1" precision="I32">
								<dim>1</dim>
							</port>
							<port id="2" precision="I32">
								<dim>1</dim>
							</port>
							<port id="3" precision="I32">
								<dim>1</dim>
							</port>
						</input>
						<output>
							<port id="4" precision="I32" />
						</output>
					</layer>
					<layer id="41" name="map/while/Preprocessor/ResizeToRange/Less" type="Less" version="opset1">
						<data auto_broadcast="numpy" />
						<rt_info>
							<attribute name="fused_names" version="0" value="map/while/Preprocessor/ResizeToRange/Less" />
						</rt_info>
						<input>
							<port id="0" precision="I32" />
							<port id="1" precision="I32" />
						</input>
						<output>
							<port id="2" precision="BOOL" />
						</output>
					</layer>
					<layer id="42" name="If_8270" type="If" version="opset8">
						<else_port_map>
							<input external_port_id="1" internal_layer_id="0" />
							<output external_port_id="2" internal_layer_id="39" />
						</else_port_map>
						<then_port_map>
							<input external_port_id="1" internal_layer_id="0" />
							<output external_port_id="2" internal_layer_id="39" />
						</then_port_map>
						<rt_info>
							<attribute name="fused_names" version="0" value="If_8270" />
						</rt_info>
						<input>
							<port id="0" precision="BOOL" />
							<port id="1" precision="FP32">
								<dim>-1</dim>
								<dim>-1</dim>
								<dim>3</dim>
							</port>
						</input>
						<output>
							<port id="2" precision="FP32">
								<dim>-1</dim>
								<dim>-1</dim>
								<dim>3</dim>
							</port>
						</output>
						<then_body>
							<layers>
								<layer id="0" name="map_while_preprocessor_resizetorange_cond_resize_expanddims_map_while_preprocessor_unstack" type="Parameter" version="opset1">
									<data shape="?,?,3" element_type="f32" />
									<output>
										<port id="0" precision="FP32">
											<dim>-1</dim>
											<dim>-1</dim>
											<dim>3</dim>
										</port>
									</output>
								</layer>
								<layer id="1" name="map/while/Preprocessor/ResizeToRange/cond/resize/ExpandDims/dim" type="Const" version="opset1">
									<data element_type="i32" shape="" offset="5" size="4" />
									<output>
										<port id="0" precision="I32" />
									</output>
								</layer>
								<layer id="2" name="map/while/Preprocessor/ResizeToRange/cond/resize/ExpandDims" type="Unsqueeze" version="opset1">
									<input>
										<port id="0" precision="FP32">
											<dim>-1</dim>
											<dim>-1</dim>
											<dim>3</dim>
										</port>
										<port id="1" precision="I32" />
									</input>
									<output>
										<port id="2" precision="FP32">
											<dim>1</dim>
											<dim>-1</dim>
											<dim>-1</dim>
											<dim>3</dim>
										</port>
									</output>
								</layer>
								<layer id="3" name="map/while/Preprocessor/ResizeToRange/cond/resize/Cast" type="Const" version="opset1">
									<data element_type="f32" shape="" offset="90" size="4" />
									<output>
										<port id="0" precision="FP32" />
									</output>
								</layer>
								<layer id="4" name="map/while/Preprocessor/ResizeToRange/cond/resize/Shape" type="ShapeOf" version="opset3">
									<data output_type="i32" />
									<input>
										<port id="0" precision="FP32">
											<dim>1</dim>
											<dim>-1</dim>
											<dim>-1</dim>
											<dim>3</dim>
										</port>
									</input>
									<output>
										<port id="1" precision="I32">
											<dim>4</dim>
										</port>
									</output>
								</layer>
								<layer id="5" name="Constant_7106" type="Const" version="opset1">
									<data element_type="i64" shape="" offset="78" size="8" />
									<output>
										<port id="0" precision="I64" />
									</output>
								</layer>
								<layer id="6" name="Split_7107" type="Split" version="opset1">
									<data num_splits="4" />
									<input>
										<port id="0" precision="I32">
											<dim>4</dim>
										</port>
										<port id="1" precision="I64" />
									</input>
									<output>
										<port id="2" precision="I32">
											<dim>1</dim>
										</port>
										<port id="3" precision="I32">
											<dim>1</dim>
										</port>
										<port id="4" precision="I32">
											<dim>1</dim>
										</port>
										<port id="5" precision="I32">
											<dim>1</dim>
										</port>
									</output>
								</layer>
								<layer id="7" name="Squeeze_7109" type="Squeeze" version="opset1">
									<input>
										<port id="0" precision="I32">
											<dim>1</dim>
										</port>
										<port id="1" precision="I64" />
									</input>
									<output>
										<port id="2" precision="I32" />
									</output>
								</layer>
								<layer id="8" name="map/while/Preprocessor/ResizeToRange/cond/resize/Cast_1" type="Convert" version="opset1">
									<data destination_type="f32" />
									<input>
										<port id="0" precision="I32" />
									</input>
									<output>
										<port id="1" precision="FP32" />
									</output>
								</layer>
								<layer id="9" name="map/while/Preprocessor/ResizeToRange/cond/resize/truediv" type="Divide" version="opset1">
									<data auto_broadcast="numpy" m_pythondiv="true" />
									<input>
										<port id="0" precision="FP32" />
										<port id="1" precision="FP32" />
									</input>
									<output>
										<port id="2" precision="FP32" />
									</output>
								</layer>
								<layer id="10" name="map/while/Preprocessor/ResizeToRange/cond/resize/Cast_2" type="Const" version="opset1">
									<data element_type="f32" shape="" offset="90" size="4" />
									<output>
										<port id="0" precision="FP32" />
									</output>
								</layer>
								<layer id="11" name="Squeeze_7110" type="Squeeze" version="opset1">
									<input>
										<port id="0" precision="I32">
											<dim>1</dim>
										</port>
										<port id="1" precision="I64" />
									</input>
									<output>
										<port id="2" precision="I32" />
									</output>
								</layer>
								<layer id="12" name="map/while/Preprocessor/ResizeToRange/cond/resize/Cast_3" type="Convert" version="opset1">
									<data destination_type="f32" />
									<input>
										<port id="0" precision="I32" />
									</input>
									<output>
										<port id="1" precision="FP32" />
									</output>
								</layer>
								<layer id="13" name="map/while/Preprocessor/ResizeToRange/cond/resize/truediv_1" type="Divide" version="opset1">
									<data auto_broadcast="numpy" m_pythondiv="true" />
									<input>
										<port id="0" precision="FP32" />
										<port id="1" precision="FP32" />
									</input>
									<output>
										<port id="2" precision="FP32" />
									</output>
								</layer>
								<layer id="14" name="map/while/Preprocessor/ResizeToRange/cond/resize/Minimum" type="Minimum" version="opset1">
									<data auto_broadcast="numpy" />
									<input>
										<port id="0" precision="FP32" />
										<port id="1" precision="FP32" />
									</input>
									<output>
										<port id="2" precision="FP32" />
									</output>
								</layer>
								<layer id="15" name="map/while/Preprocessor/ResizeToRange/cond/resize/Cast_4" type="Convert" version="opset1">
									<data destination_type="f32" />
									<input>
										<port id="0" precision="I32" />
									</input>
									<output>
										<port id="1" precision="FP32" />
									</output>
								</layer>
								<layer id="16" name="map/while/Preprocessor/ResizeToRange/cond/resize/mul" type="Multiply" version="opset1">
									<data auto_broadcast="numpy" />
									<input>
										<port id="0" precision="FP32" />
										<port id="1" precision="FP32" />
									</input>
									<output>
										<port id="2" precision="FP32" />
									</output>
								</layer>
								<layer id="17" name="map/while/Preprocessor/ResizeToRange/cond/resize/Round" type="Round" version="opset5">
									<data mode="half_to_even" />
									<input>
										<port id="0" precision="FP32" />
									</input>
									<output>
										<port id="1" precision="FP32" />
									</output>
								</layer>
								<layer id="18" name="map/while/Preprocessor/ResizeToRange/cond/resize/Cast_5" type="Convert" version="opset1">
									<data destination_type="i32" />
									<input>
										<port id="0" precision="FP32" />
									</input>
									<output>
										<port id="1" precision="I32" />
									</output>
								</layer>
								<layer id="19" name="Constant_7136" type="Const" version="opset1">
									<data element_type="i64" shape="" offset="78" size="8" />
									<output>
										<port id="0" precision="I64" />
									</output>
								</layer>
								<layer id="20" name="Unsqueeze_7137" type="Unsqueeze" version="opset1">
									<input>
										<port id="0" precision="I32" />
										<port id="1" precision="I64" />
									</input>
									<output>
										<port id="2" precision="I32">
											<dim>1</dim>
										</port>
									</output>
								</layer>
								<layer id="21" name="map/while/Preprocessor/ResizeToRange/cond/resize/Cast_6" type="Convert" version="opset1">
									<data destination_type="f32" />
									<input>
										<port id="0" precision="I32" />
									</input>
									<output>
										<port id="1" precision="FP32" />
									</output>
								</layer>
								<layer id="22" name="map/while/Preprocessor/ResizeToRange/cond/resize/mul_1" type="Multiply" version="opset1">
									<data auto_broadcast="numpy" />
									<input>
										<port id="0" precision="FP32" />
										<port id="1" precision="FP32" />
									</input>
									<output>
										<port id="2" precision="FP32" />
									</output>
								</layer>
								<layer id="23" name="map/while/Preprocessor/ResizeToRange/cond/resize/Round_1" type="Round" version="opset5">
									<data mode="half_to_even" />
									<input>
										<port id="0" precision="FP32" />
									</input>
									<output>
										<port id="1" precision="FP32" />
									</output>
								</layer>
								<layer id="24" name="map/while/Preprocessor/ResizeToRange/cond/resize/Cast_7" type="Convert" version="opset1">
									<data destination_type="i32" />
									<input>
										<port id="0" precision="FP32" />
									</input>
									<output>
										<port id="1" precision="I32" />
									</output>
								</layer>
								<layer id="25" name="Unsqueeze_7138" type="Unsqueeze" version="opset1">
									<input>
										<port id="0" precision="I32" />
										<port id="1" precision="I64" />
									</input>
									<output>
										<port id="2" precision="I32">
											<dim>1</dim>
										</port>
									</output>
								</layer>
								<layer id="26" name="map/while/Preprocessor/ResizeToRange/cond/resize/size" type="Concat" version="opset1">
									<data axis="0" />
									<input>
										<port id="0" precision="I32">
											<dim>1</dim>
										</port>
										<port id="1" precision="I32">
											<dim>1</dim>
										</port>
									</input>
									<output>
										<port id="2" precision="I32">
											<dim>2</dim>
										</port>
									</output>
								</layer>
								<layer id="27" name="Convert_7147" type="Convert" version="opset1">
									<data destination_type="f32" />
									<input>
										<port id="0" precision="I32">
											<dim>2</dim>
										</port>
									</input>
									<output>
										<port id="1" precision="FP32">
											<dim>2</dim>
										</port>
									</output>
								</layer>
								<layer id="28" name="ShapeOf_7140" type="ShapeOf" version="opset3">
									<data output_type="i32" />
									<input>
										<port id="0" precision="FP32">
											<dim>1</dim>
											<dim>-1</dim>
											<dim>-1</dim>
											<dim>3</dim>
										</port>
									</input>
									<output>
										<port id="1" precision="I32">
											<dim>4</dim>
										</port>
									</output>
								</layer>
								<layer id="29" name="Constant_7144" type="Const" version="opset1">
									<data element_type="i64" shape="1" offset="94" size="8" />
									<output>
										<port id="0" precision="I64">
											<dim>1</dim>
										</port>
									</output>
								</layer>
								<layer id="30" name="Constant_7143" type="Const" version="opset1">
									<data element_type="i64" shape="1" offset="102" size="8" />
									<output>
										<port id="0" precision="I64">
											<dim>1</dim>
										</port>
									</output>
								</layer>
								<layer id="31" name="Constant_7142" type="Const" version="opset1">
									<data element_type="i64" shape="1" offset="94" size="8" />
									<output>
										<port id="0" precision="I64">
											<dim>1</dim>
										</port>
									</output>
								</layer>
								<layer id="32" name="Slice_7145" type="StridedSlice" version="opset1">
									<data begin_mask="0" end_mask="0" new_axis_mask="" shrink_axis_mask="" ellipsis_mask="" />
									<input>
										<port id="0" precision="I32">
											<dim>4</dim>
										</port>
										<port id="1" precision="I64">
											<dim>1</dim>
										</port>
										<port id="2" precision="I64">
											<dim>1</dim>
										</port>
										<port id="3" precision="I64">
											<dim>1</dim>
										</port>
									</input>
									<output>
										<port id="4" precision="I32">
											<dim>2</dim>
										</port>
									</output>
								</layer>
								<layer id="33" name="Convert_7146" type="Convert" version="opset1">
									<data destination_type="f32" />
									<input>
										<port id="0" precision="I32">
											<dim>2</dim>
										</port>
									</input>
									<output>
										<port id="1" precision="FP32">
											<dim>2</dim>
										</port>
									</output>
								</layer>
								<layer id="34" name="Divide_7148" type="Divide" version="opset1">
									<data auto_broadcast="numpy" m_pythondiv="true" />
									<input>
										<port id="0" precision="FP32">
											<dim>2</dim>
										</port>
										<port id="1" precision="FP32">
											<dim>2</dim>
										</port>
									</input>
									<output>
										<port id="2" precision="FP32">
											<dim>2</dim>
										</port>
									</output>
								</layer>
								<layer id="35" name="Constant_7149" type="Const" version="opset1">
									<data element_type="i32" shape="2" offset="110" size="8" />
									<output>
										<port id="0" precision="I32">
											<dim>2</dim>
										</port>
									</output>
								</layer>
								<layer id="36" name="map/while/Preprocessor/ResizeToRange/cond/resize/ResizeBilinear" type="Interpolate" version="opset4">
									<data mode="linear_onnx" shape_calculation_mode="sizes" coordinate_transformation_mode="asymmetric" nearest_mode="round_prefer_floor" antialias="false" pads_begin="0, 0, 0, 0" pads_end="0, 0, 0, 0" cube_coeff="-0.75" />
									<input>
										<port id="0" precision="FP32">
											<dim>1</dim>
											<dim>-1</dim>
											<dim>-1</dim>
											<dim>3</dim>
										</port>
										<port id="1" precision="I32">
											<dim>2</dim>
										</port>
										<port id="2" precision="FP32">
											<dim>2</dim>
										</port>
										<port id="3" precision="I32">
											<dim>2</dim>
										</port>
									</input>
									<output>
										<port id="4" precision="FP32">
											<dim>1</dim>
											<dim>-1</dim>
											<dim>-1</dim>
											<dim>3</dim>
										</port>
									</output>
								</layer>
								<layer id="37" name="Constant_7392" type="Const" version="opset1">
									<data element_type="i32" shape="1" offset="5" size="4" />
									<output>
										<port id="0" precision="I32">
											<dim>1</dim>
										</port>
									</output>
								</layer>
								<layer id="38" name="map/while/Preprocessor/ResizeToRange/cond/resize/Squeeze" type="Squeeze" version="opset1">
									<input>
										<port id="0" precision="FP32">
											<dim>1</dim>
											<dim>-1</dim>
											<dim>-1</dim>
											<dim>3</dim>
										</port>
										<port id="1" precision="I32">
											<dim>1</dim>
										</port>
									</input>
									<output>
										<port id="2" precision="FP32">
											<dim>-1</dim>
											<dim>-1</dim>
											<dim>3</dim>
										</port>
									</output>
								</layer>
								<layer id="39" name="map_while_preprocessor_resizetorange_cond_identity" type="Result" version="opset1">
									<input>
										<port id="0" precision="FP32">
											<dim>-1</dim>
											<dim>-1</dim>
											<dim>3</dim>
										</port>
									</input>
								</layer>
							</layers>
							<edges>
								<edge from-layer="0" from-port="0" to-layer="2" to-port="0" />
								<edge from-layer="1" from-port="0" to-layer="2" to-port="1" />
								<edge from-layer="2" from-port="2" to-layer="4" to-port="0" />
								<edge from-layer="2" from-port="2" to-layer="28" to-port="0" />
								<edge from-layer="2" from-port="2" to-layer="36" to-port="0" />
								<edge from-layer="3" from-port="0" to-layer="9" to-port="0" />
								<edge from-layer="4" from-port="1" to-layer="6" to-port="0" />
								<edge from-layer="5" from-port="0" to-layer="6" to-port="1" />
								<edge from-layer="5" from-port="0" to-layer="7" to-port="1" />
								<edge from-layer="5" from-port="0" to-layer="11" to-port="1" />
								<edge from-layer="6" from-port="3" to-layer="7" to-port="0" />
								<edge from-layer="6" from-port="4" to-layer="11" to-port="0" />
								<edge from-layer="7" from-port="2" to-layer="15" to-port="0" />
								<edge from-layer="7" from-port="2" to-layer="8" to-port="0" />
								<edge from-layer="8" from-port="1" to-layer="9" to-port="1" />
								<edge from-layer="9" from-port="2" to-layer="14" to-port="0" />
								<edge from-layer="10" from-port="0" to-layer="13" to-port="0" />
								<edge from-layer="11" from-port="2" to-layer="21" to-port="0" />
								<edge from-layer="11" from-port="2" to-layer="12" to-port="0" />
								<edge from-layer="12" from-port="1" to-layer="13" to-port="1" />
								<edge from-layer="13" from-port="2" to-layer="14" to-port="1" />
								<edge from-layer="14" from-port="2" to-layer="16" to-port="0" />
								<edge from-layer="14" from-port="2" to-layer="22" to-port="0" />
								<edge from-layer="15" from-port="1" to-layer="16" to-port="1" />
								<edge from-layer="16" from-port="2" to-layer="17" to-port="0" />
								<edge from-layer="17" from-port="1" to-layer="18" to-port="0" />
								<edge from-layer="18" from-port="1" to-layer="20" to-port="0" />
								<edge from-layer="19" from-port="0" to-layer="20" to-port="1" />
								<edge from-layer="19" from-port="0" to-layer="25" to-port="1" />
								<edge from-layer="20" from-port="2" to-layer="26" to-port="0" />
								<edge from-layer="21" from-port="1" to-layer="22" to-port="1" />
								<edge from-layer="22" from-port="2" to-layer="23" to-port="0" />
								<edge from-layer="23" from-port="1" to-layer="24" to-port="0" />
								<edge from-layer="24" from-port="1" to-layer="25" to-port="0" />
								<edge from-layer="25" from-port="2" to-layer="26" to-port="1" />
								<edge from-layer="26" from-port="2" to-layer="36" to-port="1" />
								<edge from-layer="26" from-port="2" to-layer="27" to-port="0" />
								<edge from-layer="27" from-port="1" to-layer="34" to-port="0" />
								<edge from-layer="28" from-port="1" to-layer="32" to-port="0" />
								<edge from-layer="29" from-port="0" to-layer="32" to-port="1" />
								<edge from-layer="30" from-port="0" to-layer="32" to-port="2" />
								<edge from-layer="31" from-port="0" to-layer="32" to-port="3" />
								<edge from-layer="32" from-port="4" to-layer="33" to-port="0" />
								<edge from-layer="33" from-port="1" to-layer="34" to-port="1" />
								<edge from-layer="34" from-port="2" to-layer="36" to-port="2" />
								<edge from-layer="35" from-port="0" to-layer="36" to-port="3" />
								<edge from-layer="36" from-port="4" to-layer="38" to-port="0" />
								<edge from-layer="37" from-port="0" to-layer="38" to-port="1" />
								<edge from-layer="38" from-port="2" to-layer="39" to-port="0" />
							</edges>
							<rt_info />
						</then_body>
						<else_body>
							<layers>
								<layer id="0" name="map_while_preprocessor_resizetorange_cond_resize_expanddims_map_while_preprocessor_unstack" type="Parameter" version="opset1">
									<data shape="?,?,3" element_type="f32" />
									<output>
										<port id="0" precision="FP32">
											<dim>-1</dim>
											<dim>-1</dim>
											<dim>3</dim>
										</port>
									</output>
								</layer>
								<layer id="1" name="map/while/Preprocessor/ResizeToRange/cond/resize/ExpandDims/dim" type="Const" version="opset1">
									<data element_type="i32" shape="" offset="5" size="4" />
									<output>
										<port id="0" precision="I32" />
									</output>
								</layer>
								<layer id="2" name="map/while/Preprocessor/ResizeToRange/cond/resize/ExpandDims" type="Unsqueeze" version="opset1">
									<input>
										<port id="0" precision="FP32">
											<dim>-1</dim>
											<dim>-1</dim>
											<dim>3</dim>
										</port>
										<port id="1" precision="I32" />
									</input>
									<output>
										<port id="2" precision="FP32">
											<dim>1</dim>
											<dim>-1</dim>
											<dim>-1</dim>
											<dim>3</dim>
										</port>
									</output>
								</layer>
								<layer id="3" name="map/while/Preprocessor/ResizeToRange/cond/resize/Cast" type="Const" version="opset1">
									<data element_type="f32" shape="" offset="90" size="4" />
									<output>
										<port id="0" precision="FP32" />
									</output>
								</layer>
								<layer id="4" name="map/while/Preprocessor/ResizeToRange/cond/resize/Shape" type="ShapeOf" version="opset3">
									<data output_type="i32" />
									<input>
										<port id="0" precision="FP32">
											<dim>1</dim>
											<dim>-1</dim>
											<dim>-1</dim>
											<dim>3</dim>
										</port>
									</input>
									<output>
										<port id="1" precision="I32">
											<dim>4</dim>
										</port>
									</output>
								</layer>
								<layer id="5" name="Constant_7690" type="Const" version="opset1">
									<data element_type="i64" shape="" offset="78" size="8" />
									<output>
										<port id="0" precision="I64" />
									</output>
								</layer>
								<layer id="6" name="Split_7691" type="Split" version="opset1">
									<data num_splits="4" />
									<input>
										<port id="0" precision="I32">
											<dim>4</dim>
										</port>
										<port id="1" precision="I64" />
									</input>
									<output>
										<port id="2" precision="I32">
											<dim>1</dim>
										</port>
										<port id="3" precision="I32">
											<dim>1</dim>
										</port>
										<port id="4" precision="I32">
											<dim>1</dim>
										</port>
										<port id="5" precision="I32">
											<dim>1</dim>
										</port>
									</output>
								</layer>
								<layer id="7" name="Squeeze_7693" type="Squeeze" version="opset1">
									<input>
										<port id="0" precision="I32">
											<dim>1</dim>
										</port>
										<port id="1" precision="I64" />
									</input>
									<output>
										<port id="2" precision="I32" />
									</output>
								</layer>
								<layer id="8" name="map/while/Preprocessor/ResizeToRange/cond/resize/Cast_1" type="Convert" version="opset1">
									<data destination_type="f32" />
									<input>
										<port id="0" precision="I32" />
									</input>
									<output>
										<port id="1" precision="FP32" />
									</output>
								</layer>
								<layer id="9" name="map/while/Preprocessor/ResizeToRange/cond/resize/truediv" type="Divide" version="opset1">
									<data auto_broadcast="numpy" m_pythondiv="true" />
									<input>
										<port id="0" precision="FP32" />
										<port id="1" precision="FP32" />
									</input>
									<output>
										<port id="2" precision="FP32" />
									</output>
								</layer>
								<layer id="10" name="map/while/Preprocessor/ResizeToRange/cond/resize/Cast_2" type="Const" version="opset1">
									<data element_type="f32" shape="" offset="90" size="4" />
									<output>
										<port id="0" precision="FP32" />
									</output>
								</layer>
								<layer id="11" name="Squeeze_7694" type="Squeeze" version="opset1">
									<input>
										<port id="0" precision="I32">
											<dim>1</dim>
										</port>
										<port id="1" precision="I64" />
									</input>
									<output>
										<port id="2" precision="I32" />
									</output>
								</layer>
								<layer id="12" name="map/while/Preprocessor/ResizeToRange/cond/resize/Cast_3" type="Convert" version="opset1">
									<data destination_type="f32" />
									<input>
										<port id="0" precision="I32" />
									</input>
									<output>
										<port id="1" precision="FP32" />
									</output>
								</layer>
								<layer id="13" name="map/while/Preprocessor/ResizeToRange/cond/resize/truediv_1" type="Divide" version="opset1">
									<data auto_broadcast="numpy" m_pythondiv="true" />
									<input>
										<port id="0" precision="FP32" />
										<port id="1" precision="FP32" />
									</input>
									<output>
										<port id="2" precision="FP32" />
									</output>
								</layer>
								<layer id="14" name="map/while/Preprocessor/ResizeToRange/cond/resize/Minimum" type="Minimum" version="opset1">
									<data auto_broadcast="numpy" />
									<input>
										<port id="0" precision="FP32" />
										<port id="1" precision="FP32" />
									</input>
									<output>
										<port id="2" precision="FP32" />
									</output>
								</layer>
								<layer id="15" name="map/while/Preprocessor/ResizeToRange/cond/resize/Cast_4" type="Convert" version="opset1">
									<data destination_type="f32" />
									<input>
										<port id="0" precision="I32" />
									</input>
									<output>
										<port id="1" precision="FP32" />
									</output>
								</layer>
								<layer id="16" name="map/while/Preprocessor/ResizeToRange/cond/resize/mul" type="Multiply" version="opset1">
									<data auto_broadcast="numpy" />
									<input>
										<port id="0" precision="FP32" />
										<port id="1" precision="FP32" />
									</input>
									<output>
										<port id="2" precision="FP32" />
									</output>
								</layer>
								<layer id="17" name="map/while/Preprocessor/ResizeToRange/cond/resize/Round" type="Round" version="opset5">
									<data mode="half_to_even" />
									<input>
										<port id="0" precision="FP32" />
									</input>
									<output>
										<port id="1" precision="FP32" />
									</output>
								</layer>
								<layer id="18" name="map/while/Preprocessor/ResizeToRange/cond/resize/Cast_5" type="Convert" version="opset1">
									<data destination_type="i32" />
									<input>
										<port id="0" precision="FP32" />
									</input>
									<output>
										<port id="1" precision="I32" />
									</output>
								</layer>
								<layer id="19" name="Constant_7720" type="Const" version="opset1">
									<data element_type="i64" shape="" offset="78" size="8" />
									<output>
										<port id="0" precision="I64" />
									</output>
								</layer>
								<layer id="20" name="Unsqueeze_7721" type="Unsqueeze" version="opset1">
									<input>
										<port id="0" precision="I32" />
										<port id="1" precision="I64" />
									</input>
									<output>
										<port id="2" precision="I32">
											<dim>1</dim>
										</port>
									</output>
								</layer>
								<layer id="21" name="map/while/Preprocessor/ResizeToRange/cond/resize/Cast_6" type="Convert" version="opset1">
									<data destination_type="f32" />
									<input>
										<port id="0" precision="I32" />
									</input>
									<output>
										<port id="1" precision="FP32" />
									</output>
								</layer>
								<layer id="22" name="map/while/Preprocessor/ResizeToRange/cond/resize/mul_1" type="Multiply" version="opset1">
									<data auto_broadcast="numpy" />
									<input>
										<port id="0" precision="FP32" />
										<port id="1" precision="FP32" />
									</input>
									<output>
										<port id="2" precision="FP32" />
									</output>
								</layer>
								<layer id="23" name="map/while/Preprocessor/ResizeToRange/cond/resize/Round_1" type="Round" version="opset5">
									<data mode="half_to_even" />
									<input>
										<port id="0" precision="FP32" />
									</input>
									<output>
										<port id="1" precision="FP32" />
									</output>
								</layer>
								<layer id="24" name="map/while/Preprocessor/ResizeToRange/cond/resize/Cast_7" type="Convert" version="opset1">
									<data destination_type="i32" />
									<input>
										<port id="0" precision="FP32" />
									</input>
									<output>
										<port id="1" precision="I32" />
									</output>
								</layer>
								<layer id="25" name="Unsqueeze_7722" type="Unsqueeze" version="opset1">
									<input>
										<port id="0" precision="I32" />
										<port id="1" precision="I64" />
									</input>
									<output>
										<port id="2" precision="I32">
											<dim>1</dim>
										</port>
									</output>
								</layer>
								<layer id="26" name="map/while/Preprocessor/ResizeToRange/cond/resize/size" type="Concat" version="opset1">
									<data axis="0" />
									<input>
										<port id="0" precision="I32">
											<dim>1</dim>
										</port>
										<port id="1" precision="I32">
											<dim>1</dim>
										</port>
									</input>
									<output>
										<port id="2" precision="I32">
											<dim>2</dim>
										</port>
									</output>
								</layer>
								<layer id="27" name="Convert_7731" type="Convert" version="opset1">
									<data destination_type="f32" />
									<input>
										<port id="0" precision="I32">
											<dim>2</dim>
										</port>
									</input>
									<output>
										<port id="1" precision="FP32">
											<dim>2</dim>
										</port>
									</output>
								</layer>
								<layer id="28" name="ShapeOf_7724" type="ShapeOf" version="opset3">
									<data output_type="i32" />
									<input>
										<port id="0" precision="FP32">
											<dim>1</dim>
											<dim>-1</dim>
											<dim>-1</dim>
											<dim>3</dim>
										</port>
									</input>
									<output>
										<port id="1" precision="I32">
											<dim>4</dim>
										</port>
									</output>
								</layer>
								<layer id="29" name="Constant_7728" type="Const" version="opset1">
									<data element_type="i64" shape="1" offset="94" size="8" />
									<output>
										<port id="0" precision="I64">
											<dim>1</dim>
										</port>
									</output>
								</layer>
								<layer id="30" name="Constant_7727" type="Const" version="opset1">
									<data element_type="i64" shape="1" offset="102" size="8" />
									<output>
										<port id="0" precision="I64">
											<dim>1</dim>
										</port>
									</output>
								</layer>
								<layer id="31" name="Constant_7726" type="Const" version="opset1">
									<data element_type="i64" shape="1" offset="94" size="8" />
									<output>
										<port id="0" precision="I64">
											<dim>1</dim>
										</port>
									</output>
								</layer>
								<layer id="32" name="Slice_7729" type="StridedSlice" version="opset1">
									<data begin_mask="0" end_mask="0" new_axis_mask="" shrink_axis_mask="" ellipsis_mask="" />
									<input>
										<port id="0" precision="I32">
											<dim>4</dim>
										</port>
										<port id="1" precision="I64">
											<dim>1</dim>
										</port>
										<port id="2" precision="I64">
											<dim>1</dim>
										</port>
										<port id="3" precision="I64">
											<dim>1</dim>
										</port>
									</input>
									<output>
										<port id="4" precision="I32">
											<dim>2</dim>
										</port>
									</output>
								</layer>
								<layer id="33" name="Convert_7730" type="Convert" version="opset1">
									<data destination_type="f32" />
									<input>
										<port id="0" precision="I32">
											<dim>2</dim>
										</port>
									</input>
									<output>
										<port id="1" precision="FP32">
											<dim>2</dim>
										</port>
									</output>
								</layer>
								<layer id="34" name="Divide_7732" type="Divide" version="opset1">
									<data auto_broadcast="numpy" m_pythondiv="true" />
									<input>
										<port id="0" precision="FP32">
											<dim>2</dim>
										</port>
										<port id="1" precision="FP32">
											<dim>2</dim>
										</port>
									</input>
									<output>
										<port id="2" precision="FP32">
											<dim>2</dim>
										</port>
									</output>
								</layer>
								<layer id="35" name="Constant_7733" type="Const" version="opset1">
									<data element_type="i32" shape="2" offset="110" size="8" />
									<output>
										<port id="0" precision="I32">
											<dim>2</dim>
										</port>
									</output>
								</layer>
								<layer id="36" name="map/while/Preprocessor/ResizeToRange/cond/resize/ResizeBilinear" type="Interpolate" version="opset4">
									<data mode="linear_onnx" shape_calculation_mode="sizes" coordinate_transformation_mode="asymmetric" nearest_mode="round_prefer_floor" antialias="false" pads_begin="0, 0, 0, 0" pads_end="0, 0, 0, 0" cube_coeff="-0.75" />
									<input>
										<port id="0" precision="FP32">
											<dim>1</dim>
											<dim>-1</dim>
											<dim>-1</dim>
											<dim>3</dim>
										</port>
										<port id="1" precision="I32">
											<dim>2</dim>
										</port>
										<port id="2" precision="FP32">
											<dim>2</dim>
										</port>
										<port id="3" precision="I32">
											<dim>2</dim>
										</port>
									</input>
									<output>
										<port id="4" precision="FP32">
											<dim>1</dim>
											<dim>-1</dim>
											<dim>-1</dim>
											<dim>3</dim>
										</port>
									</output>
								</layer>
								<layer id="37" name="Constant_7976" type="Const" version="opset1">
									<data element_type="i32" shape="1" offset="5" size="4" />
									<output>
										<port id="0" precision="I32">
											<dim>1</dim>
										</port>
									</output>
								</layer>
								<layer id="38" name="map/while/Preprocessor/ResizeToRange/cond/resize/Squeeze" type="Squeeze" version="opset1">
									<input>
										<port id="0" precision="FP32">
											<dim>1</dim>
											<dim>-1</dim>
											<dim>-1</dim>
											<dim>3</dim>
										</port>
										<port id="1" precision="I32">
											<dim>1</dim>
										</port>
									</input>
									<output>
										<port id="2" precision="FP32">
											<dim>-1</dim>
											<dim>-1</dim>
											<dim>3</dim>
										</port>
									</output>
								</layer>
								<layer id="39" name="map_while_preprocessor_resizetorange_cond_identity" type="Result" version="opset1">
									<input>
										<port id="0" precision="FP32">
											<dim>-1</dim>
											<dim>-1</dim>
											<dim>3</dim>
										</port>
									</input>
								</layer>
							</layers>
							<edges>
								<edge from-layer="0" from-port="0" to-layer="2" to-port="0" />
								<edge from-layer="1" from-port="0" to-layer="2" to-port="1" />
								<edge from-layer="2" from-port="2" to-layer="4" to-port="0" />
								<edge from-layer="2" from-port="2" to-layer="28" to-port="0" />
								<edge from-layer="2" from-port="2" to-layer="36" to-port="0" />
								<edge from-layer="3" from-port="0" to-layer="9" to-port="0" />
								<edge from-layer="4" from-port="1" to-layer="6" to-port="0" />
								<edge from-layer="5" from-port="0" to-layer="6" to-port="1" />
								<edge from-layer="5" from-port="0" to-layer="7" to-port="1" />
								<edge from-layer="5" from-port="0" to-layer="11" to-port="1" />
								<edge from-layer="6" from-port="3" to-layer="7" to-port="0" />
								<edge from-layer="6" from-port="4" to-layer="11" to-port="0" />
								<edge from-layer="7" from-port="2" to-layer="15" to-port="0" />
								<edge from-layer="7" from-port="2" to-layer="8" to-port="0" />
								<edge from-layer="8" from-port="1" to-layer="9" to-port="1" />
								<edge from-layer="9" from-port="2" to-layer="14" to-port="0" />
								<edge from-layer="10" from-port="0" to-layer="13" to-port="0" />
								<edge from-layer="11" from-port="2" to-layer="21" to-port="0" />
								<edge from-layer="11" from-port="2" to-layer="12" to-port="0" />
								<edge from-layer="12" from-port="1" to-layer="13" to-port="1" />
								<edge from-layer="13" from-port="2" to-layer="14" to-port="1" />
								<edge from-layer="14" from-port="2" to-layer="16" to-port="0" />
								<edge from-layer="14" from-port="2" to-layer="22" to-port="0" />
								<edge from-layer="15" from-port="1" to-layer="16" to-port="1" />
								<edge from-layer="16" from-port="2" to-layer="17" to-port="0" />
								<edge from-layer="17" from-port="1" to-layer="18" to-port="0" />
								<edge from-layer="18" from-port="1" to-layer="20" to-port="0" />
								<edge from-layer="19" from-port="0" to-layer="20" to-port="1" />
								<edge from-layer="19" from-port="0" to-layer="25" to-port="1" />
								<edge from-layer="20" from-port="2" to-layer="26" to-port="0" />
								<edge from-layer="21" from-port="1" to-layer="22" to-port="1" />
								<edge from-layer="22" from-port="2" to-layer="23" to-port="0" />
								<edge from-layer="23" from-port="1" to-layer="24" to-port="0" />
								<edge from-layer="24" from-port="1" to-layer="25" to-port="0" />
								<edge from-layer="25" from-port="2" to-layer="26" to-port="1" />
								<edge from-layer="26" from-port="2" to-layer="36" to-port="1" />
								<edge from-layer="26" from-port="2" to-layer="27" to-port="0" />
								<edge from-layer="27" from-port="1" to-layer="34" to-port="0" />
								<edge from-layer="28" from-port="1" to-layer="32" to-port="0" />
								<edge from-layer="29" from-port="0" to-layer="32" to-port="1" />
								<edge from-layer="30" from-port="0" to-layer="32" to-port="2" />
								<edge from-layer="31" from-port="0" to-layer="32" to-port="3" />
								<edge from-layer="32" from-port="4" to-layer="33" to-port="0" />
								<edge from-layer="33" from-port="1" to-layer="34" to-port="1" />
								<edge from-layer="34" from-port="2" to-layer="36" to-port="2" />
								<edge from-layer="35" from-port="0" to-layer="36" to-port="3" />
								<edge from-layer="36" from-port="4" to-layer="38" to-port="0" />
								<edge from-layer="37" from-port="0" to-layer="38" to-port="1" />
								<edge from-layer="38" from-port="2" to-layer="39" to-port="0" />
							</edges>
							<rt_info />
						</else_body>
					</layer>
					<layer id="43" name="map/while/Preprocessor/ResizeToRange/Shape_2" type="ShapeOf" version="opset3">
						<data output_type="i32" />
						<rt_info>
							<attribute name="fused_names" version="0" value="map/while/Preprocessor/ResizeToRange/Shape_2" />
						</rt_info>
						<input>
							<port id="0" precision="FP32">
								<dim>-1</dim>
								<dim>-1</dim>
								<dim>3</dim>
							</port>
						</input>
						<output>
							<port id="1" precision="I32">
								<dim>3</dim>
							</port>
						</output>
					</layer>
					<layer id="44" name="Constant_9248" type="Const" version="opset1">
						<data element_type="i64" shape="" offset="78" size="8" />
						<rt_info>
							<attribute name="fused_names" version="0" value="Constant_9248" />
						</rt_info>
						<output>
							<port id="0" precision="I64" />
						</output>
					</layer>
					<layer id="45" name="Unsqueeze_9249" type="Unsqueeze" version="opset1">
						<rt_info>
							<attribute name="fused_names" version="0" value="Constant_9248, Unsqueeze_9249, map/while/Preprocessor/stack_1" />
						</rt_info>
						<input>
							<port id="0" precision="I32">
								<dim>3</dim>
							</port>
							<port id="1" precision="I64" />
						</input>
						<output>
							<port id="2" precision="I32">
								<dim>1</dim>
								<dim>3</dim>
							</port>
						</output>
					</layer>
					<layer id="46" name="map/while/strided_slice_2/stack" type="Const" version="opset1">
						<data element_type="i32" shape="1" offset="5" size="4" />
						<rt_info>
							<attribute name="fused_names" version="0" value="map/while/strided_slice_2/stack" />
						</rt_info>
						<output>
							<port id="0" precision="I32">
								<dim>1</dim>
							</port>
						</output>
					</layer>
					<layer id="47" name="map/while/strided_slice_2/stack_1" type="Const" version="opset1">
						<data element_type="i32" shape="1" offset="9" size="4" />
						<rt_info>
							<attribute name="fused_names" version="0" value="map/while/strided_slice_2/stack_1" />
						</rt_info>
						<output>
							<port id="0" precision="I32">
								<dim>1</dim>
							</port>
						</output>
					</layer>
					<layer id="48" name="map/while/strided_slice_2/stack_2" type="Const" version="opset1">
						<data element_type="i32" shape="1" offset="9" size="4" />
						<rt_info>
							<attribute name="fused_names" version="0" value="map/while/strided_slice_2/stack_2" />
						</rt_info>
						<output>
							<port id="0" precision="I32">
								<dim>1</dim>
							</port>
						</output>
					</layer>
					<layer id="49" name="map/while/strided_slice_2" type="StridedSlice" version="opset1">
						<data begin_mask="0" end_mask="0" new_axis_mask="0" shrink_axis_mask="1" ellipsis_mask="0" />
						<rt_info>
							<attribute name="fused_names" version="0" value="map/while/strided_slice_2, map/while/strided_slice_2/stack, map/while/strided_slice_2/stack_1, map/while/strided_slice_2/stack_2" />
						</rt_info>
						<input>
							<port id="0" precision="I32">
								<dim>1</dim>
								<dim>3</dim>
							</port>
							<port id="1" precision="I32">
								<dim>1</dim>
							</port>
							<port id="2" precision="I32">
								<dim>1</dim>
							</port>
							<port id="3" precision="I32">
								<dim>1</dim>
							</port>
						</input>
						<output>
							<port id="4" precision="I32">
								<dim>3</dim>
							</port>
						</output>
					</layer>
					<layer id="50" name="Constant_130391" type="Const" version="opset1">
						<data element_type="i64" shape="1" offset="118" size="8" />
						<rt_info>
							<attribute name="fused_names" version="0" value="Constant_130391" />
						</rt_info>
						<output>
							<port id="0" precision="I64">
								<dim>1</dim>
							</port>
						</output>
					</layer>
					<layer id="51" name="Reshape_9254" type="Reshape" version="opset1">
						<data special_zero="false" />
						<rt_info>
							<attribute name="fused_names" version="0" value="Reshape_9254" />
						</rt_info>
						<input>
							<port id="0" precision="I32">
								<dim>3</dim>
							</port>
							<port id="1" precision="I64">
								<dim>1</dim>
							</port>
						</input>
						<output>
							<port id="2" precision="I32">
								<dim>3</dim>
							</port>
						</output>
					</layer>
					<layer id="52" name="ConvertLike_9263" type="ConvertLike" version="opset1">
						<rt_info>
							<attribute name="fused_names" version="0" value="ConvertLike_9263" />
						</rt_info>
						<input>
							<port id="0" precision="I32">
								<dim>-1</dim>
								<dim>3</dim>
							</port>
							<port id="1" precision="I32">
								<dim>3</dim>
							</port>
						</input>
						<output>
							<port id="2" precision="I32">
								<dim>-1</dim>
								<dim>3</dim>
							</port>
						</output>
					</layer>
					<layer id="53" name="Constant_9273" type="Const" version="opset1">
						<data element_type="i32" shape="" offset="5" size="4" />
						<rt_info>
							<attribute name="fused_names" version="0" value="Constant_9273" />
						</rt_info>
						<output>
							<port id="0" precision="I32" />
						</output>
					</layer>
					<layer id="54" name="ShapeOf_9264" type="ShapeOf" version="opset3">
						<data output_type="i32" />
						<rt_info>
							<attribute name="fused_names" version="0" value="ShapeOf_9264" />
						</rt_info>
						<input>
							<port id="0" precision="I32">
								<dim>-1</dim>
								<dim>3</dim>
							</port>
						</input>
						<output>
							<port id="1" precision="I32">
								<dim>2</dim>
							</port>
						</output>
					</layer>
					<layer id="55" name="Constant_9265" type="Const" version="opset1">
						<data element_type="i32" shape="1" offset="5" size="4" />
						<rt_info>
							<attribute name="fused_names" version="0" value="Slice_9267" />
						</rt_info>
						<output>
							<port id="0" precision="I32">
								<dim>1</dim>
							</port>
						</output>
					</layer>
					<layer id="56" name="Constant_9266" type="Const" version="opset1">
						<data element_type="i32" shape="1" offset="9" size="4" />
						<rt_info>
							<attribute name="fused_names" version="0" value="Slice_9267" />
						</rt_info>
						<output>
							<port id="0" precision="I32">
								<dim>1</dim>
							</port>
						</output>
					</layer>
					<layer id="57" name="Slice_9267" type="StridedSlice" version="opset1">
						<data begin_mask="0" end_mask="0" new_axis_mask="" shrink_axis_mask="" ellipsis_mask="" />
						<rt_info>
							<attribute name="fused_names" version="0" value="Slice_9267" />
						</rt_info>
						<input>
							<port id="0" precision="I32">
								<dim>2</dim>
							</port>
							<port id="1" precision="I32">
								<dim>1</dim>
							</port>
							<port id="2" precision="I32">
								<dim>1</dim>
							</port>
							<port id="3" precision="I32">
								<dim>1</dim>
							</port>
						</input>
						<output>
							<port id="4" precision="I32">
								<dim>1</dim>
							</port>
						</output>
					</layer>
					<layer id="58" name="Constant_9269" type="Const" version="opset1">
						<data element_type="i32" shape="1" offset="9" size="4" />
						<rt_info>
							<attribute name="fused_names" version="0" value="Constant_9269" />
						</rt_info>
						<output>
							<port id="0" precision="I32">
								<dim>1</dim>
							</port>
						</output>
					</layer>
					<layer id="59" name="Add_9270" type="Add" version="opset1">
						<data auto_broadcast="numpy" />
						<rt_info>
							<attribute name="fused_names" version="0" value="Add_9270" />
						</rt_info>
						<input>
							<port id="0" precision="I32" />
							<port id="1" precision="I32">
								<dim>1</dim>
							</port>
						</input>
						<output>
							<port id="2" precision="I32">
								<dim>1</dim>
							</port>
						</output>
					</layer>
					<layer id="60" name="Maximum_9271" type="Maximum" version="opset1">
						<data auto_broadcast="numpy" />
						<rt_info>
							<attribute name="fused_names" version="0" value="Maximum_9271" />
						</rt_info>
						<input>
							<port id="0" precision="I32">
								<dim>1</dim>
							</port>
							<port id="1" precision="I32">
								<dim>1</dim>
							</port>
						</input>
						<output>
							<port id="2" precision="I32">
								<dim>1</dim>
							</port>
						</output>
					</layer>
					<layer id="61" name="Subtract_9272" type="Subtract" version="opset1">
						<data auto_broadcast="numpy" />
						<rt_info>
							<attribute name="fused_names" version="0" value="Subtract_9272" />
						</rt_info>
						<input>
							<port id="0" precision="I32">
								<dim>1</dim>
							</port>
							<port id="1" precision="I32">
								<dim>1</dim>
							</port>
						</input>
						<output>
							<port id="2" precision="I32">
								<dim>1</dim>
							</port>
						</output>
					</layer>
					<layer id="62" name="ShapeOf_9257" type="Const" version="opset1">
						<data element_type="i32" shape="1" offset="126" size="4" />
						<rt_info>
							<attribute name="fused_names" version="0" value="ShapeOf_9257" />
						</rt_info>
						<output>
							<port id="0" precision="I32">
								<dim>1</dim>
							</port>
						</output>
					</layer>
					<layer id="63" name="Concat_9274" type="Concat" version="opset1">
						<data axis="0" />
						<rt_info>
							<attribute name="fused_names" version="0" value="Concat_9274" />
						</rt_info>
						<input>
							<port id="0" precision="I32">
								<dim>1</dim>
							</port>
							<port id="1" precision="I32">
								<dim>1</dim>
							</port>
						</input>
						<output>
							<port id="2" precision="I32">
								<dim>2</dim>
							</port>
						</output>
					</layer>
					<layer id="64" name="Broadcast_9275" type="Broadcast" version="opset3">
						<data mode="numpy" />
						<rt_info>
							<attribute name="fused_names" version="0" value="Broadcast_9275" />
						</rt_info>
						<input>
							<port id="0" precision="I32" />
							<port id="1" precision="I32">
								<dim>2</dim>
							</port>
						</input>
						<output>
							<port id="2" precision="I32">
								<dim>-1</dim>
								<dim>3</dim>
							</port>
						</output>
					</layer>
					<layer id="65" name="Concat_9276" type="Concat" version="opset1">
						<data axis="0" />
						<rt_info>
							<attribute name="fused_names" version="0" value="Concat_9276" />
						</rt_info>
						<input>
							<port id="0" precision="I32">
								<dim>-1</dim>
								<dim>3</dim>
							</port>
							<port id="1" precision="I32">
								<dim>-1</dim>
								<dim>3</dim>
							</port>
						</input>
						<output>
							<port id="2" precision="I32">
								<dim>-1</dim>
								<dim>3</dim>
							</port>
						</output>
					</layer>
					<layer id="66" name="Unsqueeze_9277" type="Unsqueeze" version="opset1">
						<rt_info>
							<attribute name="fused_names" version="0" value="Slice_9267, Unsqueeze_9277" />
						</rt_info>
						<input>
							<port id="0" precision="I32" />
							<port id="1" precision="I32">
								<dim>1</dim>
							</port>
						</input>
						<output>
							<port id="2" precision="I32">
								<dim>1</dim>
							</port>
						</output>
					</layer>
					<layer id="67" name="Unsqueeze_9278" type="Unsqueeze" version="opset1">
						<rt_info>
							<attribute name="fused_names" version="0" value="Slice_9267, Unsqueeze_9278" />
						</rt_info>
						<input>
							<port id="0" precision="I32">
								<dim>3</dim>
							</port>
							<port id="1" precision="I32">
								<dim>1</dim>
							</port>
						</input>
						<output>
							<port id="2" precision="I32">
								<dim>1</dim>
								<dim>3</dim>
							</port>
						</output>
					</layer>
					<layer id="68" name="map/while/TensorArrayV2Write_1/TensorListSetItem" type="ScatterUpdate" version="opset3">
						<rt_info>
							<attribute name="fused_names" version="0" value="Slice_9267, map/while/TensorArrayV2Write_1/TensorListSetItem" />
						</rt_info>
						<input>
							<port id="0" precision="I32">
								<dim>-1</dim>
								<dim>3</dim>
							</port>
							<port id="1" precision="I32">
								<dim>1</dim>
							</port>
							<port id="2" precision="I32">
								<dim>1</dim>
								<dim>3</dim>
							</port>
							<port id="3" precision="I32">
								<dim>1</dim>
							</port>
						</input>
						<output>
							<port id="4" precision="I32">
								<dim>-1</dim>
								<dim>3</dim>
							</port>
						</output>
					</layer>
					<layer id="70" name="Constant_10153" type="Const" version="opset1">
						<data element_type="i32" shape="1" offset="0" size="4" />
						<rt_info>
							<attribute name="fused_names" version="0" value="Constant_10153" />
						</rt_info>
						<output>
							<port id="0" precision="I32">
								<dim>1</dim>
							</port>
						</output>
					</layer>
					<layer id="71" name="Constant_9310" type="Const" version="opset1">
						<data element_type="i64" shape="" offset="130" size="8" />
						<rt_info>
							<attribute name="fused_names" version="0" value="Constant_9310" />
						</rt_info>
						<output>
							<port id="0" precision="I64" />
						</output>
					</layer>
					<layer id="72" name="Split_9311" type="Split" version="opset1">
						<data num_splits="3" />
						<rt_info>
							<attribute name="fused_names" version="0" value="Split_9311" />
						</rt_info>
						<input>
							<port id="0" precision="FP32">
								<dim>-1</dim>
								<dim>-1</dim>
								<dim>3</dim>
							</port>
							<port id="1" precision="I64" />
						</input>
						<output>
							<port id="2" precision="FP32">
								<dim>-1</dim>
								<dim>-1</dim>
								<dim>1</dim>
							</port>
							<port id="3" precision="FP32">
								<dim>-1</dim>
								<dim>-1</dim>
								<dim>1</dim>
							</port>
							<port id="4" precision="FP32">
								<dim>-1</dim>
								<dim>-1</dim>
								<dim>1</dim>
							</port>
						</output>
					</layer>
					<layer id="73" name="Squeeze_9312" type="Squeeze" version="opset1">
						<rt_info>
							<attribute name="fused_names" version="0" value="Squeeze_9312" />
						</rt_info>
						<input>
							<port id="0" precision="FP32">
								<dim>-1</dim>
								<dim>-1</dim>
								<dim>1</dim>
							</port>
							<port id="1" precision="I64" />
						</input>
						<output>
							<port id="2" precision="FP32">
								<dim>-1</dim>
								<dim>-1</dim>
							</port>
						</output>
					</layer>
					<layer id="74" name="Unsqueeze_9874" type="Const" version="opset1">
						<data element_type="i32" shape="1" offset="5" size="4" />
						<rt_info>
							<attribute name="fused_names" version="0" value="Unsqueeze_9874" />
						</rt_info>
						<output>
							<port id="0" precision="I32">
								<dim>1</dim>
							</port>
						</output>
					</layer>
					<layer id="75" name="map/while/Preprocessor/ResizeToRange/sub/x" type="Const" version="opset1">
						<data element_type="i32" shape="" offset="138" size="4" />
						<rt_info>
							<attribute name="fused_names" version="0" value="map/while/Preprocessor/ResizeToRange/sub/x" />
						</rt_info>
						<output>
							<port id="0" precision="I32" />
						</output>
					</layer>
					<layer id="76" name="map/while/Preprocessor/ResizeToRange/strided_slice_2/stack" type="Const" version="opset1">
						<data element_type="i32" shape="1" offset="5" size="4" />
						<rt_info>
							<attribute name="fused_names" version="0" value="map/while/Preprocessor/ResizeToRange/strided_slice_2/stack" />
						</rt_info>
						<output>
							<port id="0" precision="I32">
								<dim>1</dim>
							</port>
						</output>
					</layer>
					<layer id="77" name="map/while/Preprocessor/ResizeToRange/strided_slice_2/stack_1" type="Const" version="opset1">
						<data element_type="i32" shape="1" offset="9" size="4" />
						<rt_info>
							<attribute name="fused_names" version="0" value="map/while/Preprocessor/ResizeToRange/strided_slice_2/stack_1" />
						</rt_info>
						<output>
							<port id="0" precision="I32">
								<dim>1</dim>
							</port>
						</output>
					</layer>
					<layer id="78" name="map/while/Preprocessor/ResizeToRange/strided_slice_2/stack_2" type="Const" version="opset1">
						<data element_type="i32" shape="1" offset="9" size="4" />
						<rt_info>
							<attribute name="fused_names" version="0" value="map/while/Preprocessor/ResizeToRange/strided_slice_2/stack_2" />
						</rt_info>
						<output>
							<port id="0" precision="I32">
								<dim>1</dim>
							</port>
						</output>
					</layer>
					<layer id="79" name="map/while/Preprocessor/ResizeToRange/strided_slice_2" type="StridedSlice" version="opset1">
						<data begin_mask="0" end_mask="0" new_axis_mask="0" shrink_axis_mask="1" ellipsis_mask="0" />
						<rt_info>
							<attribute name="fused_names" version="0" value="map/while/Preprocessor/ResizeToRange/strided_slice_2, map/while/Preprocessor/ResizeToRange/strided_slice_2/stack, map/while/Preprocessor/ResizeToRange/strided_slice_2/stack_1, map/while/Preprocessor/ResizeToRange/strided_slice_2/stack_2" />
						</rt_info>
						<input>
							<port id="0" precision="I32">
								<dim>3</dim>
							</port>
							<port id="1" precision="I32">
								<dim>1</dim>
							</port>
							<port id="2" precision="I32">
								<dim>1</dim>
							</port>
							<port id="3" precision="I32">
								<dim>1</dim>
							</port>
						</input>
						<output>
							<port id="4" precision="I32" />
						</output>
					</layer>
					<layer id="80" name="map/while/Preprocessor/ResizeToRange/sub" type="Subtract" version="opset1">
						<data auto_broadcast="numpy" />
						<rt_info>
							<attribute name="fused_names" version="0" value="map/while/Preprocessor/ResizeToRange/sub, map/while/Preprocessor/ResizeToRange/sub/x" />
						</rt_info>
						<input>
							<port id="0" precision="I32" />
							<port id="1" precision="I32" />
						</input>
						<output>
							<port id="2" precision="I32" />
						</output>
					</layer>
					<layer id="81" name="Constant_9873" type="Const" version="opset1">
						<data element_type="i64" shape="" offset="78" size="8" />
						<rt_info>
							<attribute name="fused_names" version="0" value="Constant_9873" />
						</rt_info>
						<output>
							<port id="0" precision="I64" />
						</output>
					</layer>
					<layer id="82" name="Unsqueeze_9875" type="Unsqueeze" version="opset1">
						<rt_info>
							<attribute name="fused_names" version="0" value="Constant_9873, Unsqueeze_9875" />
						</rt_info>
						<input>
							<port id="0" precision="I32" />
							<port id="1" precision="I64" />
						</input>
						<output>
							<port id="2" precision="I32">
								<dim>1</dim>
							</port>
						</output>
					</layer>
					<layer id="83" name="map/while/Preprocessor/ResizeToRange/Pad/paddings/0" type="Concat" version="opset1">
						<data axis="0" />
						<rt_info>
							<attribute name="fused_names" version="0" value="Unsqueeze_9874, map/while/Preprocessor/ResizeToRange/Pad/paddings/0" />
						</rt_info>
						<input>
							<port id="0" precision="I32">
								<dim>1</dim>
							</port>
							<port id="1" precision="I32">
								<dim>1</dim>
							</port>
						</input>
						<output>
							<port id="2" precision="I32">
								<dim>2</dim>
							</port>
						</output>
					</layer>
					<layer id="84" name="Constant_9877" type="Const" version="opset1">
						<data element_type="i64" shape="" offset="78" size="8" />
						<rt_info>
							<attribute name="fused_names" version="0" value="Constant_9877" />
						</rt_info>
						<output>
							<port id="0" precision="I64" />
						</output>
					</layer>
					<layer id="85" name="Unsqueeze_9878" type="Unsqueeze" version="opset1">
						<rt_info>
							<attribute name="fused_names" version="0" value="Constant_9877, Unsqueeze_9878" />
						</rt_info>
						<input>
							<port id="0" precision="I32">
								<dim>2</dim>
							</port>
							<port id="1" precision="I64" />
						</input>
						<output>
							<port id="2" precision="I32">
								<dim>1</dim>
								<dim>2</dim>
							</port>
						</output>
					</layer>
					<layer id="86" name="Unsqueeze_9863" type="Const" version="opset1">
						<data element_type="i32" shape="1" offset="5" size="4" />
						<rt_info>
							<attribute name="fused_names" version="0" value="Unsqueeze_9863" />
						</rt_info>
						<output>
							<port id="0" precision="I32">
								<dim>1</dim>
							</port>
						</output>
					</layer>
					<layer id="87" name="map/while/Preprocessor/ResizeToRange/sub_1/x" type="Const" version="opset1">
						<data element_type="i32" shape="" offset="138" size="4" />
						<rt_info>
							<attribute name="fused_names" version="0" value="map/while/Preprocessor/ResizeToRange/sub_1/x" />
						</rt_info>
						<output>
							<port id="0" precision="I32" />
						</output>
					</layer>
					<layer id="88" name="map/while/Preprocessor/ResizeToRange/strided_slice_3/stack" type="Const" version="opset1">
						<data element_type="i32" shape="1" offset="9" size="4" />
						<rt_info>
							<attribute name="fused_names" version="0" value="map/while/Preprocessor/ResizeToRange/strided_slice_3/stack" />
						</rt_info>
						<output>
							<port id="0" precision="I32">
								<dim>1</dim>
							</port>
						</output>
					</layer>
					<layer id="89" name="map/while/Preprocessor/ResizeToRange/strided_slice_3/stack_1" type="Const" version="opset1">
						<data element_type="i32" shape="1" offset="86" size="4" />
						<rt_info>
							<attribute name="fused_names" version="0" value="map/while/Preprocessor/ResizeToRange/strided_slice_3/stack_1" />
						</rt_info>
						<output>
							<port id="0" precision="I32">
								<dim>1</dim>
							</port>
						</output>
					</layer>
					<layer id="90" name="map/while/Preprocessor/ResizeToRange/strided_slice_3/stack_2" type="Const" version="opset1">
						<data element_type="i32" shape="1" offset="9" size="4" />
						<rt_info>
							<attribute name="fused_names" version="0" value="map/while/Preprocessor/ResizeToRange/strided_slice_3/stack_2" />
						</rt_info>
						<output>
							<port id="0" precision="I32">
								<dim>1</dim>
							</port>
						</output>
					</layer>
					<layer id="91" name="map/while/Preprocessor/ResizeToRange/strided_slice_3" type="StridedSlice" version="opset1">
						<data begin_mask="0" end_mask="0" new_axis_mask="0" shrink_axis_mask="1" ellipsis_mask="0" />
						<rt_info>
							<attribute name="fused_names" version="0" value="map/while/Preprocessor/ResizeToRange/strided_slice_3, map/while/Preprocessor/ResizeToRange/strided_slice_3/stack, map/while/Preprocessor/ResizeToRange/strided_slice_3/stack_1, map/while/Preprocessor/ResizeToRange/strided_slice_3/stack_2" />
						</rt_info>
						<input>
							<port id="0" precision="I32">
								<dim>3</dim>
							</port>
							<port id="1" precision="I32">
								<dim>1</dim>
							</port>
							<port id="2" precision="I32">
								<dim>1</dim>
							</port>
							<port id="3" precision="I32">
								<dim>1</dim>
							</port>
						</input>
						<output>
							<port id="4" precision="I32" />
						</output>
					</layer>
					<layer id="92" name="map/while/Preprocessor/ResizeToRange/sub_1" type="Subtract" version="opset1">
						<data auto_broadcast="numpy" />
						<rt_info>
							<attribute name="fused_names" version="0" value="map/while/Preprocessor/ResizeToRange/sub_1, map/while/Preprocessor/ResizeToRange/sub_1/x" />
						</rt_info>
						<input>
							<port id="0" precision="I32" />
							<port id="1" precision="I32" />
						</input>
						<output>
							<port id="2" precision="I32" />
						</output>
					</layer>
					<layer id="93" name="Constant_9862" type="Const" version="opset1">
						<data element_type="i64" shape="" offset="78" size="8" />
						<rt_info>
							<attribute name="fused_names" version="0" value="Constant_9862" />
						</rt_info>
						<output>
							<port id="0" precision="I64" />
						</output>
					</layer>
					<layer id="94" name="Unsqueeze_9864" type="Unsqueeze" version="opset1">
						<rt_info>
							<attribute name="fused_names" version="0" value="Constant_9862, Unsqueeze_9864" />
						</rt_info>
						<input>
							<port id="0" precision="I32" />
							<port id="1" precision="I64" />
						</input>
						<output>
							<port id="2" precision="I32">
								<dim>1</dim>
							</port>
						</output>
					</layer>
					<layer id="95" name="map/while/Preprocessor/ResizeToRange/Pad/paddings/1" type="Concat" version="opset1">
						<data axis="0" />
						<rt_info>
							<attribute name="fused_names" version="0" value="Unsqueeze_9863, map/while/Preprocessor/ResizeToRange/Pad/paddings/1" />
						</rt_info>
						<input>
							<port id="0" precision="I32">
								<dim>1</dim>
							</port>
							<port id="1" precision="I32">
								<dim>1</dim>
							</port>
						</input>
						<output>
							<port id="2" precision="I32">
								<dim>2</dim>
							</port>
						</output>
					</layer>
					<layer id="96" name="Unsqueeze_9879" type="Unsqueeze" version="opset1">
						<rt_info>
							<attribute name="fused_names" version="0" value="Constant_9877, Unsqueeze_9879" />
						</rt_info>
						<input>
							<port id="0" precision="I32">
								<dim>2</dim>
							</port>
							<port id="1" precision="I64" />
						</input>
						<output>
							<port id="2" precision="I32">
								<dim>1</dim>
								<dim>2</dim>
							</port>
						</output>
					</layer>
					<layer id="97" name="map/while/Preprocessor/ResizeToRange/Pad/paddings" type="Concat" version="opset1">
						<data axis="0" />
						<rt_info>
							<attribute name="fused_names" version="0" value="map/while/Preprocessor/ResizeToRange/Pad/paddings" />
						</rt_info>
						<input>
							<port id="0" precision="I32">
								<dim>1</dim>
								<dim>2</dim>
							</port>
							<port id="1" precision="I32">
								<dim>1</dim>
								<dim>2</dim>
							</port>
						</input>
						<output>
							<port id="2" precision="I32">
								<dim>2</dim>
								<dim>2</dim>
							</port>
						</output>
					</layer>
					<layer id="98" name="Convert_9882" type="Convert" version="opset1">
						<data destination_type="i64" />
						<rt_info>
							<attribute name="fused_names" version="0" value="Convert_9882" />
						</rt_info>
						<input>
							<port id="0" precision="I32">
								<dim>2</dim>
								<dim>2</dim>
							</port>
						</input>
						<output>
							<port id="1" precision="I64">
								<dim>2</dim>
								<dim>2</dim>
							</port>
						</output>
					</layer>
					<layer id="99" name="Constant_9884" type="Const" version="opset1">
						<data element_type="i32" shape="" offset="5" size="4" />
						<rt_info>
							<attribute name="fused_names" version="0" value="Constant_9884" />
						</rt_info>
						<output>
							<port id="0" precision="I32" />
						</output>
					</layer>
					<layer id="100" name="Constant_9883" type="Const" version="opset1">
						<data element_type="i32" shape="" offset="9" size="4" />
						<rt_info>
							<attribute name="fused_names" version="0" value="Constant_9883" />
						</rt_info>
						<output>
							<port id="0" precision="I32" />
						</output>
					</layer>
					<layer id="101" name="Gather_9886" type="Gather" version="opset8">
						<data batch_dims="0" />
						<rt_info>
							<attribute name="fused_names" version="0" value="Constant_9883, Constant_9884, Gather_9886" />
						</rt_info>
						<input>
							<port id="0" precision="I64">
								<dim>2</dim>
								<dim>2</dim>
							</port>
							<port id="1" precision="I32" />
							<port id="2" precision="I32" />
						</input>
						<output>
							<port id="3" precision="I64">
								<dim>2</dim>
							</port>
						</output>
					</layer>
					<layer id="102" name="Constant_9885" type="Const" version="opset1">
						<data element_type="i32" shape="" offset="9" size="4" />
						<rt_info>
							<attribute name="fused_names" version="0" value="Constant_9885" />
						</rt_info>
						<output>
							<port id="0" precision="I32" />
						</output>
					</layer>
					<layer id="103" name="Gather_9887" type="Gather" version="opset8">
						<data batch_dims="0" />
						<rt_info>
							<attribute name="fused_names" version="0" value="Constant_9883, Constant_9885, Gather_9887" />
						</rt_info>
						<input>
							<port id="0" precision="I64">
								<dim>2</dim>
								<dim>2</dim>
							</port>
							<port id="1" precision="I32" />
							<port id="2" precision="I32" />
						</input>
						<output>
							<port id="3" precision="I64">
								<dim>2</dim>
							</port>
						</output>
					</layer>
					<layer id="104" name="Constant_9881" type="Const" version="opset1">
						<data element_type="f32" shape="" offset="5" size="4" />
						<rt_info>
							<attribute name="fused_names" version="0" value="Constant_9881" />
						</rt_info>
						<output>
							<port id="0" precision="FP32" />
						</output>
					</layer>
					<layer id="105" name="map/while/Preprocessor/ResizeToRange/Pad" type="Pad" version="opset1">
						<data pad_mode="constant" />
						<rt_info>
							<attribute name="fused_names" version="0" value="map/while/Preprocessor/ResizeToRange/Pad" />
						</rt_info>
						<input>
							<port id="0" precision="FP32">
								<dim>-1</dim>
								<dim>-1</dim>
							</port>
							<port id="1" precision="I64">
								<dim>2</dim>
							</port>
							<port id="2" precision="I64">
								<dim>2</dim>
							</port>
							<port id="3" precision="FP32" />
						</input>
						<output>
							<port id="4" precision="FP32">
								<dim>-1</dim>
								<dim>-1</dim>
							</port>
						</output>
					</layer>
					<layer id="106" name="Constant_10138" type="Const" version="opset1">
						<data element_type="i64" shape="" offset="130" size="8" />
						<rt_info>
							<attribute name="fused_names" version="0" value="Constant_10138" />
						</rt_info>
						<output>
							<port id="0" precision="I64" />
						</output>
					</layer>
					<layer id="107" name="Unsqueeze_10139" type="Unsqueeze" version="opset1">
						<rt_info>
							<attribute name="fused_names" version="0" value="Unsqueeze_10139" />
						</rt_info>
						<input>
							<port id="0" precision="FP32">
								<dim>-1</dim>
								<dim>-1</dim>
							</port>
							<port id="1" precision="I64" />
						</input>
						<output>
							<port id="2" precision="FP32">
								<dim>-1</dim>
								<dim>-1</dim>
								<dim>1</dim>
							</port>
						</output>
					</layer>
					<layer id="108" name="Squeeze_9313" type="Squeeze" version="opset1">
						<rt_info>
							<attribute name="fused_names" version="0" value="Squeeze_9313" />
						</rt_info>
						<input>
							<port id="0" precision="FP32">
								<dim>-1</dim>
								<dim>-1</dim>
								<dim>1</dim>
							</port>
							<port id="1" precision="I64" />
						</input>
						<output>
							<port id="2" precision="FP32">
								<dim>-1</dim>
								<dim>-1</dim>
							</port>
						</output>
					</layer>
					<layer id="109" name="Unsqueeze_9591" type="Const" version="opset1">
						<data element_type="i32" shape="1" offset="5" size="4" />
						<rt_info>
							<attribute name="fused_names" version="0" value="Unsqueeze_9591" />
						</rt_info>
						<output>
							<port id="0" precision="I32">
								<dim>1</dim>
							</port>
						</output>
					</layer>
					<layer id="110" name="map/while/Preprocessor/ResizeToRange/sub_2/x" type="Const" version="opset1">
						<data element_type="i32" shape="" offset="138" size="4" />
						<rt_info>
							<attribute name="fused_names" version="0" value="map/while/Preprocessor/ResizeToRange/sub_2/x" />
						</rt_info>
						<output>
							<port id="0" precision="I32" />
						</output>
					</layer>
					<layer id="111" name="map/while/Preprocessor/ResizeToRange/strided_slice_4/stack" type="Const" version="opset1">
						<data element_type="i32" shape="1" offset="5" size="4" />
						<rt_info>
							<attribute name="fused_names" version="0" value="map/while/Preprocessor/ResizeToRange/strided_slice_4/stack" />
						</rt_info>
						<output>
							<port id="0" precision="I32">
								<dim>1</dim>
							</port>
						</output>
					</layer>
					<layer id="112" name="map/while/Preprocessor/ResizeToRange/strided_slice_4/stack_1" type="Const" version="opset1">
						<data element_type="i32" shape="1" offset="9" size="4" />
						<rt_info>
							<attribute name="fused_names" version="0" value="map/while/Preprocessor/ResizeToRange/strided_slice_4/stack_1" />
						</rt_info>
						<output>
							<port id="0" precision="I32">
								<dim>1</dim>
							</port>
						</output>
					</layer>
					<layer id="113" name="map/while/Preprocessor/ResizeToRange/strided_slice_4/stack_2" type="Const" version="opset1">
						<data element_type="i32" shape="1" offset="9" size="4" />
						<rt_info>
							<attribute name="fused_names" version="0" value="map/while/Preprocessor/ResizeToRange/strided_slice_4/stack_2" />
						</rt_info>
						<output>
							<port id="0" precision="I32">
								<dim>1</dim>
							</port>
						</output>
					</layer>
					<layer id="114" name="map/while/Preprocessor/ResizeToRange/strided_slice_4" type="StridedSlice" version="opset1">
						<data begin_mask="0" end_mask="0" new_axis_mask="0" shrink_axis_mask="1" ellipsis_mask="0" />
						<rt_info>
							<attribute name="fused_names" version="0" value="map/while/Preprocessor/ResizeToRange/strided_slice_4, map/while/Preprocessor/ResizeToRange/strided_slice_4/stack, map/while/Preprocessor/ResizeToRange/strided_slice_4/stack_1, map/while/Preprocessor/ResizeToRange/strided_slice_4/stack_2" />
						</rt_info>
						<input>
							<port id="0" precision="I32">
								<dim>3</dim>
							</port>
							<port id="1" precision="I32">
								<dim>1</dim>
							</port>
							<port id="2" precision="I32">
								<dim>1</dim>
							</port>
							<port id="3" precision="I32">
								<dim>1</dim>
							</port>
						</input>
						<output>
							<port id="4" precision="I32" />
						</output>
					</layer>
					<layer id="115" name="map/while/Preprocessor/ResizeToRange/sub_2" type="Subtract" version="opset1">
						<data auto_broadcast="numpy" />
						<rt_info>
							<attribute name="fused_names" version="0" value="map/while/Preprocessor/ResizeToRange/sub_2, map/while/Preprocessor/ResizeToRange/sub_2/x" />
						</rt_info>
						<input>
							<port id="0" precision="I32" />
							<port id="1" precision="I32" />
						</input>
						<output>
							<port id="2" precision="I32" />
						</output>
					</layer>
					<layer id="116" name="Constant_9590" type="Const" version="opset1">
						<data element_type="i64" shape="" offset="78" size="8" />
						<rt_info>
							<attribute name="fused_names" version="0" value="Constant_9590" />
						</rt_info>
						<output>
							<port id="0" precision="I64" />
						</output>
					</layer>
					<layer id="117" name="Unsqueeze_9592" type="Unsqueeze" version="opset1">
						<rt_info>
							<attribute name="fused_names" version="0" value="Constant_9590, Unsqueeze_9592" />
						</rt_info>
						<input>
							<port id="0" precision="I32" />
							<port id="1" precision="I64" />
						</input>
						<output>
							<port id="2" precision="I32">
								<dim>1</dim>
							</port>
						</output>
					</layer>
					<layer id="118" name="map/while/Preprocessor/ResizeToRange/Pad_1/paddings/0" type="Concat" version="opset1">
						<data axis="0" />
						<rt_info>
							<attribute name="fused_names" version="0" value="Unsqueeze_9591, map/while/Preprocessor/ResizeToRange/Pad_1/paddings/0" />
						</rt_info>
						<input>
							<port id="0" precision="I32">
								<dim>1</dim>
							</port>
							<port id="1" precision="I32">
								<dim>1</dim>
							</port>
						</input>
						<output>
							<port id="2" precision="I32">
								<dim>2</dim>
							</port>
						</output>
					</layer>
					<layer id="119" name="Constant_9594" type="Const" version="opset1">
						<data element_type="i64" shape="" offset="78" size="8" />
						<rt_info>
							<attribute name="fused_names" version="0" value="Constant_9594" />
						</rt_info>
						<output>
							<port id="0" precision="I64" />
						</output>
					</layer>
					<layer id="120" name="Unsqueeze_9595" type="Unsqueeze" version="opset1">
						<rt_info>
							<attribute name="fused_names" version="0" value="Constant_9594, Unsqueeze_9595" />
						</rt_info>
						<input>
							<port id="0" precision="I32">
								<dim>2</dim>
							</port>
							<port id="1" precision="I64" />
						</input>
						<output>
							<port id="2" precision="I32">
								<dim>1</dim>
								<dim>2</dim>
							</port>
						</output>
					</layer>
					<layer id="121" name="Unsqueeze_9580" type="Const" version="opset1">
						<data element_type="i32" shape="1" offset="5" size="4" />
						<rt_info>
							<attribute name="fused_names" version="0" value="Unsqueeze_9580" />
						</rt_info>
						<output>
							<port id="0" precision="I32">
								<dim>1</dim>
							</port>
						</output>
					</layer>
					<layer id="122" name="map/while/Preprocessor/ResizeToRange/sub_3/x" type="Const" version="opset1">
						<data element_type="i32" shape="" offset="138" size="4" />
						<rt_info>
							<attribute name="fused_names" version="0" value="map/while/Preprocessor/ResizeToRange/sub_3/x" />
						</rt_info>
						<output>
							<port id="0" precision="I32" />
						</output>
					</layer>
					<layer id="123" name="map/while/Preprocessor/ResizeToRange/strided_slice_5/stack" type="Const" version="opset1">
						<data element_type="i32" shape="1" offset="9" size="4" />
						<rt_info>
							<attribute name="fused_names" version="0" value="map/while/Preprocessor/ResizeToRange/strided_slice_5/stack" />
						</rt_info>
						<output>
							<port id="0" precision="I32">
								<dim>1</dim>
							</port>
						</output>
					</layer>
					<layer id="124" name="map/while/Preprocessor/ResizeToRange/strided_slice_5/stack_1" type="Const" version="opset1">
						<data element_type="i32" shape="1" offset="86" size="4" />
						<rt_info>
							<attribute name="fused_names" version="0" value="map/while/Preprocessor/ResizeToRange/strided_slice_5/stack_1" />
						</rt_info>
						<output>
							<port id="0" precision="I32">
								<dim>1</dim>
							</port>
						</output>
					</layer>
					<layer id="125" name="map/while/Preprocessor/ResizeToRange/strided_slice_5/stack_2" type="Const" version="opset1">
						<data element_type="i32" shape="1" offset="9" size="4" />
						<rt_info>
							<attribute name="fused_names" version="0" value="map/while/Preprocessor/ResizeToRange/strided_slice_5/stack_2" />
						</rt_info>
						<output>
							<port id="0" precision="I32">
								<dim>1</dim>
							</port>
						</output>
					</layer>
					<layer id="126" name="map/while/Preprocessor/ResizeToRange/strided_slice_5" type="StridedSlice" version="opset1">
						<data begin_mask="0" end_mask="0" new_axis_mask="0" shrink_axis_mask="1" ellipsis_mask="0" />
						<rt_info>
							<attribute name="fused_names" version="0" value="map/while/Preprocessor/ResizeToRange/strided_slice_5, map/while/Preprocessor/ResizeToRange/strided_slice_5/stack, map/while/Preprocessor/ResizeToRange/strided_slice_5/stack_1, map/while/Preprocessor/ResizeToRange/strided_slice_5/stack_2" />
						</rt_info>
						<input>
							<port id="0" precision="I32">
								<dim>3</dim>
							</port>
							<port id="1" precision="I32">
								<dim>1</dim>
							</port>
							<port id="2" precision="I32">
								<dim>1</dim>
							</port>
							<port id="3" precision="I32">
								<dim>1</dim>
							</port>
						</input>
						<output>
							<port id="4" precision="I32" />
						</output>
					</layer>
					<layer id="127" name="map/while/Preprocessor/ResizeToRange/sub_3" type="Subtract" version="opset1">
						<data auto_broadcast="numpy" />
						<rt_info>
							<attribute name="fused_names" version="0" value="map/while/Preprocessor/ResizeToRange/sub_3, map/while/Preprocessor/ResizeToRange/sub_3/x" />
						</rt_info>
						<input>
							<port id="0" precision="I32" />
							<port id="1" precision="I32" />
						</input>
						<output>
							<port id="2" precision="I32" />
						</output>
					</layer>
					<layer id="128" name="Constant_9579" type="Const" version="opset1">
						<data element_type="i64" shape="" offset="78" size="8" />
						<rt_info>
							<attribute name="fused_names" version="0" value="Constant_9579" />
						</rt_info>
						<output>
							<port id="0" precision="I64" />
						</output>
					</layer>
					<layer id="129" name="Unsqueeze_9581" type="Unsqueeze" version="opset1">
						<rt_info>
							<attribute name="fused_names" version="0" value="Constant_9579, Unsqueeze_9581" />
						</rt_info>
						<input>
							<port id="0" precision="I32" />
							<port id="1" precision="I64" />
						</input>
						<output>
							<port id="2" precision="I32">
								<dim>1</dim>
							</port>
						</output>
					</layer>
					<layer id="130" name="map/while/Preprocessor/ResizeToRange/Pad_1/paddings/1" type="Concat" version="opset1">
						<data axis="0" />
						<rt_info>
							<attribute name="fused_names" version="0" value="Unsqueeze_9580, map/while/Preprocessor/ResizeToRange/Pad_1/paddings/1" />
						</rt_info>
						<input>
							<port id="0" precision="I32">
								<dim>1</dim>
							</port>
							<port id="1" precision="I32">
								<dim>1</dim>
							</port>
						</input>
						<output>
							<port id="2" precision="I32">
								<dim>2</dim>
							</port>
						</output>
					</layer>
					<layer id="131" name="Unsqueeze_9596" type="Unsqueeze" version="opset1">
						<rt_info>
							<attribute name="fused_names" version="0" value="Constant_9594, Unsqueeze_9596" />
						</rt_info>
						<input>
							<port id="0" precision="I32">
								<dim>2</dim>
							</port>
							<port id="1" precision="I64" />
						</input>
						<output>
							<port id="2" precision="I32">
								<dim>1</dim>
								<dim>2</dim>
							</port>
						</output>
					</layer>
					<layer id="132" name="map/while/Preprocessor/ResizeToRange/Pad_1/paddings" type="Concat" version="opset1">
						<data axis="0" />
						<rt_info>
							<attribute name="fused_names" version="0" value="map/while/Preprocessor/ResizeToRange/Pad_1/paddings" />
						</rt_info>
						<input>
							<port id="0" precision="I32">
								<dim>1</dim>
								<dim>2</dim>
							</port>
							<port id="1" precision="I32">
								<dim>1</dim>
								<dim>2</dim>
							</port>
						</input>
						<output>
							<port id="2" precision="I32">
								<dim>2</dim>
								<dim>2</dim>
							</port>
						</output>
					</layer>
					<layer id="133" name="Convert_9599" type="Convert" version="opset1">
						<data destination_type="i64" />
						<rt_info>
							<attribute name="fused_names" version="0" value="Convert_9599" />
						</rt_info>
						<input>
							<port id="0" precision="I32">
								<dim>2</dim>
								<dim>2</dim>
							</port>
						</input>
						<output>
							<port id="1" precision="I64">
								<dim>2</dim>
								<dim>2</dim>
							</port>
						</output>
					</layer>
					<layer id="134" name="Constant_9601" type="Const" version="opset1">
						<data element_type="i32" shape="" offset="5" size="4" />
						<rt_info>
							<attribute name="fused_names" version="0" value="Constant_9601" />
						</rt_info>
						<output>
							<port id="0" precision="I32" />
						</output>
					</layer>
					<layer id="135" name="Constant_9600" type="Const" version="opset1">
						<data element_type="i32" shape="" offset="9" size="4" />
						<rt_info>
							<attribute name="fused_names" version="0" value="Constant_9600" />
						</rt_info>
						<output>
							<port id="0" precision="I32" />
						</output>
					</layer>
					<layer id="136" name="Gather_9603" type="Gather" version="opset8">
						<data batch_dims="0" />
						<rt_info>
							<attribute name="fused_names" version="0" value="Constant_9600, Constant_9601, Gather_9603" />
						</rt_info>
						<input>
							<port id="0" precision="I64">
								<dim>2</dim>
								<dim>2</dim>
							</port>
							<port id="1" precision="I32" />
							<port id="2" precision="I32" />
						</input>
						<output>
							<port id="3" precision="I64">
								<dim>2</dim>
							</port>
						</output>
					</layer>
					<layer id="137" name="Constant_9602" type="Const" version="opset1">
						<data element_type="i32" shape="" offset="9" size="4" />
						<rt_info>
							<attribute name="fused_names" version="0" value="Constant_9602" />
						</rt_info>
						<output>
							<port id="0" precision="I32" />
						</output>
					</layer>
					<layer id="138" name="Gather_9604" type="Gather" version="opset8">
						<data batch_dims="0" />
						<rt_info>
							<attribute name="fused_names" version="0" value="Constant_9600, Constant_9602, Gather_9604" />
						</rt_info>
						<input>
							<port id="0" precision="I64">
								<dim>2</dim>
								<dim>2</dim>
							</port>
							<port id="1" precision="I32" />
							<port id="2" precision="I32" />
						</input>
						<output>
							<port id="3" precision="I64">
								<dim>2</dim>
							</port>
						</output>
					</layer>
					<layer id="139" name="Constant_9598" type="Const" version="opset1">
						<data element_type="f32" shape="" offset="5" size="4" />
						<rt_info>
							<attribute name="fused_names" version="0" value="Constant_9598" />
						</rt_info>
						<output>
							<port id="0" precision="FP32" />
						</output>
					</layer>
					<layer id="140" name="map/while/Preprocessor/ResizeToRange/Pad_1" type="Pad" version="opset1">
						<data pad_mode="constant" />
						<rt_info>
							<attribute name="fused_names" version="0" value="map/while/Preprocessor/ResizeToRange/Pad_1" />
						</rt_info>
						<input>
							<port id="0" precision="FP32">
								<dim>-1</dim>
								<dim>-1</dim>
							</port>
							<port id="1" precision="I64">
								<dim>2</dim>
							</port>
							<port id="2" precision="I64">
								<dim>2</dim>
							</port>
							<port id="3" precision="FP32" />
						</input>
						<output>
							<port id="4" precision="FP32">
								<dim>-1</dim>
								<dim>-1</dim>
							</port>
						</output>
					</layer>
					<layer id="141" name="Unsqueeze_10140" type="Unsqueeze" version="opset1">
						<rt_info>
							<attribute name="fused_names" version="0" value="Unsqueeze_10140" />
						</rt_info>
						<input>
							<port id="0" precision="FP32">
								<dim>-1</dim>
								<dim>-1</dim>
							</port>
							<port id="1" precision="I64" />
						</input>
						<output>
							<port id="2" precision="FP32">
								<dim>-1</dim>
								<dim>-1</dim>
								<dim>1</dim>
							</port>
						</output>
					</layer>
					<layer id="142" name="Squeeze_9314" type="Squeeze" version="opset1">
						<rt_info>
							<attribute name="fused_names" version="0" value="Squeeze_9314" />
						</rt_info>
						<input>
							<port id="0" precision="FP32">
								<dim>-1</dim>
								<dim>-1</dim>
								<dim>1</dim>
							</port>
							<port id="1" precision="I64" />
						</input>
						<output>
							<port id="2" precision="FP32">
								<dim>-1</dim>
								<dim>-1</dim>
							</port>
						</output>
					</layer>
					<layer id="143" name="Unsqueeze_9303" type="Const" version="opset1">
						<data element_type="i32" shape="1" offset="5" size="4" />
						<rt_info>
							<attribute name="fused_names" version="0" value="Unsqueeze_9303" />
						</rt_info>
						<output>
							<port id="0" precision="I32">
								<dim>1</dim>
							</port>
						</output>
					</layer>
					<layer id="144" name="map/while/Preprocessor/ResizeToRange/sub_4/x" type="Const" version="opset1">
						<data element_type="i32" shape="" offset="138" size="4" />
						<rt_info>
							<attribute name="fused_names" version="0" value="map/while/Preprocessor/ResizeToRange/sub_4/x" />
						</rt_info>
						<output>
							<port id="0" precision="I32" />
						</output>
					</layer>
					<layer id="145" name="map/while/Preprocessor/ResizeToRange/strided_slice_6/stack" type="Const" version="opset1">
						<data element_type="i32" shape="1" offset="5" size="4" />
						<rt_info>
							<attribute name="fused_names" version="0" value="map/while/Preprocessor/ResizeToRange/strided_slice_6/stack" />
						</rt_info>
						<output>
							<port id="0" precision="I32">
								<dim>1</dim>
							</port>
						</output>
					</layer>
					<layer id="146" name="map/while/Preprocessor/ResizeToRange/strided_slice_6/stack_1" type="Const" version="opset1">
						<data element_type="i32" shape="1" offset="9" size="4" />
						<rt_info>
							<attribute name="fused_names" version="0" value="map/while/Preprocessor/ResizeToRange/strided_slice_6/stack_1" />
						</rt_info>
						<output>
							<port id="0" precision="I32">
								<dim>1</dim>
							</port>
						</output>
					</layer>
					<layer id="147" name="map/while/Preprocessor/ResizeToRange/strided_slice_6/stack_2" type="Const" version="opset1">
						<data element_type="i32" shape="1" offset="9" size="4" />
						<rt_info>
							<attribute name="fused_names" version="0" value="map/while/Preprocessor/ResizeToRange/strided_slice_6/stack_2" />
						</rt_info>
						<output>
							<port id="0" precision="I32">
								<dim>1</dim>
							</port>
						</output>
					</layer>
					<layer id="148" name="map/while/Preprocessor/ResizeToRange/strided_slice_6" type="StridedSlice" version="opset1">
						<data begin_mask="0" end_mask="0" new_axis_mask="0" shrink_axis_mask="1" ellipsis_mask="0" />
						<rt_info>
							<attribute name="fused_names" version="0" value="map/while/Preprocessor/ResizeToRange/strided_slice_6, map/while/Preprocessor/ResizeToRange/strided_slice_6/stack, map/while/Preprocessor/ResizeToRange/strided_slice_6/stack_1, map/while/Preprocessor/ResizeToRange/strided_slice_6/stack_2" />
						</rt_info>
						<input>
							<port id="0" precision="I32">
								<dim>3</dim>
							</port>
							<port id="1" precision="I32">
								<dim>1</dim>
							</port>
							<port id="2" precision="I32">
								<dim>1</dim>
							</port>
							<port id="3" precision="I32">
								<dim>1</dim>
							</port>
						</input>
						<output>
							<port id="4" precision="I32" />
						</output>
					</layer>
					<layer id="149" name="map/while/Preprocessor/ResizeToRange/sub_4" type="Subtract" version="opset1">
						<data auto_broadcast="numpy" />
						<rt_info>
							<attribute name="fused_names" version="0" value="map/while/Preprocessor/ResizeToRange/sub_4, map/while/Preprocessor/ResizeToRange/sub_4/x" />
						</rt_info>
						<input>
							<port id="0" precision="I32" />
							<port id="1" precision="I32" />
						</input>
						<output>
							<port id="2" precision="I32" />
						</output>
					</layer>
					<layer id="150" name="Constant_9302" type="Const" version="opset1">
						<data element_type="i64" shape="" offset="78" size="8" />
						<rt_info>
							<attribute name="fused_names" version="0" value="Constant_9302" />
						</rt_info>
						<output>
							<port id="0" precision="I64" />
						</output>
					</layer>
					<layer id="151" name="Unsqueeze_9304" type="Unsqueeze" version="opset1">
						<rt_info>
							<attribute name="fused_names" version="0" value="Constant_9302, Unsqueeze_9304" />
						</rt_info>
						<input>
							<port id="0" precision="I32" />
							<port id="1" precision="I64" />
						</input>
						<output>
							<port id="2" precision="I32">
								<dim>1</dim>
							</port>
						</output>
					</layer>
					<layer id="152" name="map/while/Preprocessor/ResizeToRange/Pad_2/paddings/0" type="Concat" version="opset1">
						<data axis="0" />
						<rt_info>
							<attribute name="fused_names" version="0" value="Unsqueeze_9303, map/while/Preprocessor/ResizeToRange/Pad_2/paddings/0" />
						</rt_info>
						<input>
							<port id="0" precision="I32">
								<dim>1</dim>
							</port>
							<port id="1" precision="I32">
								<dim>1</dim>
							</port>
						</input>
						<output>
							<port id="2" precision="I32">
								<dim>2</dim>
							</port>
						</output>
					</layer>
					<layer id="153" name="Constant_9306" type="Const" version="opset1">
						<data element_type="i64" shape="" offset="78" size="8" />
						<rt_info>
							<attribute name="fused_names" version="0" value="Constant_9306" />
						</rt_info>
						<output>
							<port id="0" precision="I64" />
						</output>
					</layer>
					<layer id="154" name="Unsqueeze_9307" type="Unsqueeze" version="opset1">
						<rt_info>
							<attribute name="fused_names" version="0" value="Constant_9306, Unsqueeze_9307" />
						</rt_info>
						<input>
							<port id="0" precision="I32">
								<dim>2</dim>
							</port>
							<port id="1" precision="I64" />
						</input>
						<output>
							<port id="2" precision="I32">
								<dim>1</dim>
								<dim>2</dim>
							</port>
						</output>
					</layer>
					<layer id="155" name="Unsqueeze_9292" type="Const" version="opset1">
						<data element_type="i32" shape="1" offset="5" size="4" />
						<rt_info>
							<attribute name="fused_names" version="0" value="Unsqueeze_9292" />
						</rt_info>
						<output>
							<port id="0" precision="I32">
								<dim>1</dim>
							</port>
						</output>
					</layer>
					<layer id="156" name="map/while/Preprocessor/ResizeToRange/sub_5/x" type="Const" version="opset1">
						<data element_type="i32" shape="" offset="138" size="4" />
						<rt_info>
							<attribute name="fused_names" version="0" value="map/while/Preprocessor/ResizeToRange/sub_5/x" />
						</rt_info>
						<output>
							<port id="0" precision="I32" />
						</output>
					</layer>
					<layer id="157" name="map/while/Preprocessor/ResizeToRange/strided_slice_7/stack" type="Const" version="opset1">
						<data element_type="i32" shape="1" offset="9" size="4" />
						<rt_info>
							<attribute name="fused_names" version="0" value="map/while/Preprocessor/ResizeToRange/strided_slice_7/stack" />
						</rt_info>
						<output>
							<port id="0" precision="I32">
								<dim>1</dim>
							</port>
						</output>
					</layer>
					<layer id="158" name="map/while/Preprocessor/ResizeToRange/strided_slice_7/stack_1" type="Const" version="opset1">
						<data element_type="i32" shape="1" offset="86" size="4" />
						<rt_info>
							<attribute name="fused_names" version="0" value="map/while/Preprocessor/ResizeToRange/strided_slice_7/stack_1" />
						</rt_info>
						<output>
							<port id="0" precision="I32">
								<dim>1</dim>
							</port>
						</output>
					</layer>
					<layer id="159" name="map/while/Preprocessor/ResizeToRange/strided_slice_7/stack_2" type="Const" version="opset1">
						<data element_type="i32" shape="1" offset="9" size="4" />
						<rt_info>
							<attribute name="fused_names" version="0" value="map/while/Preprocessor/ResizeToRange/strided_slice_7/stack_2" />
						</rt_info>
						<output>
							<port id="0" precision="I32">
								<dim>1</dim>
							</port>
						</output>
					</layer>
					<layer id="160" name="map/while/Preprocessor/ResizeToRange/strided_slice_7" type="StridedSlice" version="opset1">
						<data begin_mask="0" end_mask="0" new_axis_mask="0" shrink_axis_mask="1" ellipsis_mask="0" />
						<rt_info>
							<attribute name="fused_names" version="0" value="map/while/Preprocessor/ResizeToRange/strided_slice_7, map/while/Preprocessor/ResizeToRange/strided_slice_7/stack, map/while/Preprocessor/ResizeToRange/strided_slice_7/stack_1, map/while/Preprocessor/ResizeToRange/strided_slice_7/stack_2" />
						</rt_info>
						<input>
							<port id="0" precision="I32">
								<dim>3</dim>
							</port>
							<port id="1" precision="I32">
								<dim>1</dim>
							</port>
							<port id="2" precision="I32">
								<dim>1</dim>
							</port>
							<port id="3" precision="I32">
								<dim>1</dim>
							</port>
						</input>
						<output>
							<port id="4" precision="I32" />
						</output>
					</layer>
					<layer id="161" name="map/while/Preprocessor/ResizeToRange/sub_5" type="Subtract" version="opset1">
						<data auto_broadcast="numpy" />
						<rt_info>
							<attribute name="fused_names" version="0" value="map/while/Preprocessor/ResizeToRange/sub_5, map/while/Preprocessor/ResizeToRange/sub_5/x" />
						</rt_info>
						<input>
							<port id="0" precision="I32" />
							<port id="1" precision="I32" />
						</input>
						<output>
							<port id="2" precision="I32" />
						</output>
					</layer>
					<layer id="162" name="Constant_9291" type="Const" version="opset1">
						<data element_type="i64" shape="" offset="78" size="8" />
						<rt_info>
							<attribute name="fused_names" version="0" value="Constant_9291" />
						</rt_info>
						<output>
							<port id="0" precision="I64" />
						</output>
					</layer>
					<layer id="163" name="Unsqueeze_9293" type="Unsqueeze" version="opset1">
						<rt_info>
							<attribute name="fused_names" version="0" value="Constant_9291, Unsqueeze_9293" />
						</rt_info>
						<input>
							<port id="0" precision="I32" />
							<port id="1" precision="I64" />
						</input>
						<output>
							<port id="2" precision="I32">
								<dim>1</dim>
							</port>
						</output>
					</layer>
					<layer id="164" name="map/while/Preprocessor/ResizeToRange/Pad_2/paddings/1" type="Concat" version="opset1">
						<data axis="0" />
						<rt_info>
							<attribute name="fused_names" version="0" value="Unsqueeze_9292, map/while/Preprocessor/ResizeToRange/Pad_2/paddings/1" />
						</rt_info>
						<input>
							<port id="0" precision="I32">
								<dim>1</dim>
							</port>
							<port id="1" precision="I32">
								<dim>1</dim>
							</port>
						</input>
						<output>
							<port id="2" precision="I32">
								<dim>2</dim>
							</port>
						</output>
					</layer>
					<layer id="165" name="Unsqueeze_9308" type="Unsqueeze" version="opset1">
						<rt_info>
							<attribute name="fused_names" version="0" value="Constant_9306, Unsqueeze_9308" />
						</rt_info>
						<input>
							<port id="0" precision="I32">
								<dim>2</dim>
							</port>
							<port id="1" precision="I64" />
						</input>
						<output>
							<port id="2" precision="I32">
								<dim>1</dim>
								<dim>2</dim>
							</port>
						</output>
					</layer>
					<layer id="166" name="map/while/Preprocessor/ResizeToRange/Pad_2/paddings" type="Concat" version="opset1">
						<data axis="0" />
						<rt_info>
							<attribute name="fused_names" version="0" value="map/while/Preprocessor/ResizeToRange/Pad_2/paddings" />
						</rt_info>
						<input>
							<port id="0" precision="I32">
								<dim>1</dim>
								<dim>2</dim>
							</port>
							<port id="1" precision="I32">
								<dim>1</dim>
								<dim>2</dim>
							</port>
						</input>
						<output>
							<port id="2" precision="I32">
								<dim>2</dim>
								<dim>2</dim>
							</port>
						</output>
					</layer>
					<layer id="167" name="Convert_9316" type="Convert" version="opset1">
						<data destination_type="i64" />
						<rt_info>
							<attribute name="fused_names" version="0" value="Convert_9316" />
						</rt_info>
						<input>
							<port id="0" precision="I32">
								<dim>2</dim>
								<dim>2</dim>
							</port>
						</input>
						<output>
							<port id="1" precision="I64">
								<dim>2</dim>
								<dim>2</dim>
							</port>
						</output>
					</layer>
					<layer id="168" name="Constant_9318" type="Const" version="opset1">
						<data element_type="i32" shape="" offset="5" size="4" />
						<rt_info>
							<attribute name="fused_names" version="0" value="Constant_9318" />
						</rt_info>
						<output>
							<port id="0" precision="I32" />
						</output>
					</layer>
					<layer id="169" name="Constant_9317" type="Const" version="opset1">
						<data element_type="i32" shape="" offset="9" size="4" />
						<rt_info>
							<attribute name="fused_names" version="0" value="Constant_9317" />
						</rt_info>
						<output>
							<port id="0" precision="I32" />
						</output>
					</layer>
					<layer id="170" name="Gather_9320" type="Gather" version="opset8">
						<data batch_dims="0" />
						<rt_info>
							<attribute name="fused_names" version="0" value="Constant_9317, Constant_9318, Gather_9320" />
						</rt_info>
						<input>
							<port id="0" precision="I64">
								<dim>2</dim>
								<dim>2</dim>
							</port>
							<port id="1" precision="I32" />
							<port id="2" precision="I32" />
						</input>
						<output>
							<port id="3" precision="I64">
								<dim>2</dim>
							</port>
						</output>
					</layer>
					<layer id="171" name="Constant_9319" type="Const" version="opset1">
						<data element_type="i32" shape="" offset="9" size="4" />
						<rt_info>
							<attribute name="fused_names" version="0" value="Constant_9319" />
						</rt_info>
						<output>
							<port id="0" precision="I32" />
						</output>
					</layer>
					<layer id="172" name="Gather_9321" type="Gather" version="opset8">
						<data batch_dims="0" />
						<rt_info>
							<attribute name="fused_names" version="0" value="Constant_9317, Constant_9319, Gather_9321" />
						</rt_info>
						<input>
							<port id="0" precision="I64">
								<dim>2</dim>
								<dim>2</dim>
							</port>
							<port id="1" precision="I32" />
							<port id="2" precision="I32" />
						</input>
						<output>
							<port id="3" precision="I64">
								<dim>2</dim>
							</port>
						</output>
					</layer>
					<layer id="173" name="Constant_9315" type="Const" version="opset1">
						<data element_type="f32" shape="" offset="5" size="4" />
						<rt_info>
							<attribute name="fused_names" version="0" value="Constant_9315" />
						</rt_info>
						<output>
							<port id="0" precision="FP32" />
						</output>
					</layer>
					<layer id="174" name="map/while/Preprocessor/ResizeToRange/Pad_2" type="Pad" version="opset1">
						<data pad_mode="constant" />
						<rt_info>
							<attribute name="fused_names" version="0" value="map/while/Preprocessor/ResizeToRange/Pad_2" />
						</rt_info>
						<input>
							<port id="0" precision="FP32">
								<dim>-1</dim>
								<dim>-1</dim>
							</port>
							<port id="1" precision="I64">
								<dim>2</dim>
							</port>
							<port id="2" precision="I64">
								<dim>2</dim>
							</port>
							<port id="3" precision="FP32" />
						</input>
						<output>
							<port id="4" precision="FP32">
								<dim>-1</dim>
								<dim>-1</dim>
							</port>
						</output>
					</layer>
					<layer id="175" name="Unsqueeze_10141" type="Unsqueeze" version="opset1">
						<rt_info>
							<attribute name="fused_names" version="0" value="Unsqueeze_10141" />
						</rt_info>
						<input>
							<port id="0" precision="FP32">
								<dim>-1</dim>
								<dim>-1</dim>
							</port>
							<port id="1" precision="I64" />
						</input>
						<output>
							<port id="2" precision="FP32">
								<dim>-1</dim>
								<dim>-1</dim>
								<dim>1</dim>
							</port>
						</output>
					</layer>
					<layer id="176" name="map/while/Preprocessor/ResizeToRange/stack" type="Concat" version="opset1">
						<data axis="2" />
						<rt_info>
							<attribute name="fused_names" version="0" value="map/while/Preprocessor/ResizeToRange/stack" />
						</rt_info>
						<input>
							<port id="0" precision="FP32">
								<dim>-1</dim>
								<dim>-1</dim>
								<dim>1</dim>
							</port>
							<port id="1" precision="FP32">
								<dim>-1</dim>
								<dim>-1</dim>
								<dim>1</dim>
							</port>
							<port id="2" precision="FP32">
								<dim>-1</dim>
								<dim>-1</dim>
								<dim>1</dim>
							</port>
						</input>
						<output>
							<port id="3" precision="FP32">
								<dim>-1</dim>
								<dim>-1</dim>
								<dim>3</dim>
							</port>
						</output>
					</layer>
					<layer id="177" name="Constant_10143" type="Const" version="opset1">
						<data element_type="i64" shape="" offset="78" size="8" />
						<rt_info>
							<attribute name="fused_names" version="0" value="Constant_10143" />
						</rt_info>
						<output>
							<port id="0" precision="I64" />
						</output>
					</layer>
					<layer id="178" name="Unsqueeze_10144" type="Unsqueeze" version="opset1">
						<rt_info>
							<attribute name="fused_names" version="0" value="Unsqueeze_10144, map/while/Preprocessor/stack" />
						</rt_info>
						<input>
							<port id="0" precision="FP32">
								<dim>-1</dim>
								<dim>-1</dim>
								<dim>3</dim>
							</port>
							<port id="1" precision="I64" />
						</input>
						<output>
							<port id="2" precision="FP32">
								<dim>1</dim>
								<dim>-1</dim>
								<dim>-1</dim>
								<dim>3</dim>
							</port>
						</output>
					</layer>
					<layer id="179" name="map/while/strided_slice_1/stack" type="Const" version="opset1">
						<data element_type="i32" shape="1" offset="5" size="4" />
						<rt_info>
							<attribute name="fused_names" version="0" value="map/while/strided_slice_1/stack" />
						</rt_info>
						<output>
							<port id="0" precision="I32">
								<dim>1</dim>
							</port>
						</output>
					</layer>
					<layer id="180" name="map/while/strided_slice_1/stack_1" type="Const" version="opset1">
						<data element_type="i32" shape="1" offset="9" size="4" />
						<rt_info>
							<attribute name="fused_names" version="0" value="map/while/strided_slice_1/stack_1" />
						</rt_info>
						<output>
							<port id="0" precision="I32">
								<dim>1</dim>
							</port>
						</output>
					</layer>
					<layer id="181" name="map/while/strided_slice_1/stack_2" type="Const" version="opset1">
						<data element_type="i32" shape="1" offset="9" size="4" />
						<rt_info>
							<attribute name="fused_names" version="0" value="map/while/strided_slice_1/stack_2" />
						</rt_info>
						<output>
							<port id="0" precision="I32">
								<dim>1</dim>
							</port>
						</output>
					</layer>
					<layer id="182" name="map/while/strided_slice_1" type="StridedSlice" version="opset1">
						<data begin_mask="0" end_mask="0" new_axis_mask="0" shrink_axis_mask="1" ellipsis_mask="0" />
						<rt_info>
							<attribute name="fused_names" version="0" value="map/while/strided_slice_1" />
						</rt_info>
						<input>
							<port id="0" precision="FP32">
								<dim>1</dim>
								<dim>-1</dim>
								<dim>-1</dim>
								<dim>3</dim>
							</port>
							<port id="1" precision="I32">
								<dim>1</dim>
							</port>
							<port id="2" precision="I32">
								<dim>1</dim>
							</port>
							<port id="3" precision="I32">
								<dim>1</dim>
							</port>
						</input>
						<output>
							<port id="4" precision="FP32">
								<dim>-1</dim>
								<dim>-1</dim>
								<dim>3</dim>
							</port>
						</output>
					</layer>
					<layer id="183" name="Constant_130392" type="Const" version="opset1">
						<data element_type="i64" shape="1" offset="118" size="8" />
						<rt_info>
							<attribute name="fused_names" version="0" value="Constant_130392" />
						</rt_info>
						<output>
							<port id="0" precision="I64">
								<dim>1</dim>
							</port>
						</output>
					</layer>
					<layer id="184" name="Reshape_10149" type="Reshape" version="opset1">
						<data special_zero="false" />
						<rt_info>
							<attribute name="fused_names" version="0" value="Reshape_10149" />
						</rt_info>
						<input>
							<port id="0" precision="FP32">
								<dim>-1</dim>
								<dim>-1</dim>
								<dim>3</dim>
							</port>
							<port id="1" precision="I64">
								<dim>1</dim>
							</port>
						</input>
						<output>
							<port id="2" precision="FP32">
								<dim>-1</dim>
							</port>
						</output>
					</layer>
					<layer id="185" name="ShapeOf_10152" type="ShapeOf" version="opset3">
						<data output_type="i32" />
						<rt_info>
							<attribute name="fused_names" version="0" value="ShapeOf_10152" />
						</rt_info>
						<input>
							<port id="0" precision="FP32">
								<dim>-1</dim>
							</port>
						</input>
						<output>
							<port id="1" precision="I32">
								<dim>1</dim>
							</port>
						</output>
					</layer>
					<layer id="186" name="Concat_10154" type="Concat" version="opset1">
						<data axis="0" />
						<rt_info>
							<attribute name="fused_names" version="0" value="Concat_10154, Constant_10153, ShapeOf_10152" />
						</rt_info>
						<input>
							<port id="0" precision="I32">
								<dim>1</dim>
							</port>
							<port id="1" precision="I32">
								<dim>1</dim>
							</port>
						</input>
						<output>
							<port id="2" precision="I32">
								<dim>2</dim>
							</port>
						</output>
					</layer>
					<layer id="187" name="Reshape_10155" type="Reshape" version="opset1">
						<data special_zero="false" />
						<rt_info>
							<attribute name="fused_names" version="0" value="Reshape_10155" />
						</rt_info>
						<input>
							<port id="0" precision="FP32">
								<dim>0</dim>
								<dim>0</dim>
							</port>
							<port id="1" precision="I32">
								<dim>2</dim>
							</port>
						</input>
						<output>
							<port id="2" precision="FP32">
								<dim>-1</dim>
								<dim>-1</dim>
							</port>
						</output>
					</layer>
					<layer id="188" name="ConvertLike_10162" type="ConvertLike" version="opset1">
						<rt_info>
							<attribute name="fused_names" version="0" value="ConvertLike_10162" />
						</rt_info>
						<input>
							<port id="0" precision="FP32">
								<dim>-1</dim>
								<dim>-1</dim>
							</port>
							<port id="1" precision="FP32">
								<dim>-1</dim>
							</port>
						</input>
						<output>
							<port id="2" precision="FP32">
								<dim>-1</dim>
								<dim>-1</dim>
							</port>
						</output>
					</layer>
					<layer id="189" name="Constant_10172" type="Const" version="opset1">
						<data element_type="f32" shape="" offset="5" size="4" />
						<rt_info>
							<attribute name="fused_names" version="0" value="Constant_10172" />
						</rt_info>
						<output>
							<port id="0" precision="FP32" />
						</output>
					</layer>
					<layer id="190" name="ShapeOf_10163" type="ShapeOf" version="opset3">
						<data output_type="i32" />
						<rt_info>
							<attribute name="fused_names" version="0" value="ShapeOf_10163" />
						</rt_info>
						<input>
							<port id="0" precision="FP32">
								<dim>-1</dim>
								<dim>-1</dim>
							</port>
						</input>
						<output>
							<port id="1" precision="I32">
								<dim>2</dim>
							</port>
						</output>
					</layer>
					<layer id="191" name="Constant_10164" type="Const" version="opset1">
						<data element_type="i32" shape="1" offset="5" size="4" />
						<rt_info>
							<attribute name="fused_names" version="0" value="Slice_10166" />
						</rt_info>
						<output>
							<port id="0" precision="I32">
								<dim>1</dim>
							</port>
						</output>
					</layer>
					<layer id="192" name="Constant_10165" type="Const" version="opset1">
						<data element_type="i32" shape="1" offset="9" size="4" />
						<rt_info>
							<attribute name="fused_names" version="0" value="Slice_10166" />
						</rt_info>
						<output>
							<port id="0" precision="I32">
								<dim>1</dim>
							</port>
						</output>
					</layer>
					<layer id="193" name="Slice_10166" type="StridedSlice" version="opset1">
						<data begin_mask="0" end_mask="0" new_axis_mask="" shrink_axis_mask="" ellipsis_mask="" />
						<rt_info>
							<attribute name="fused_names" version="0" value="Slice_10166" />
						</rt_info>
						<input>
							<port id="0" precision="I32">
								<dim>2</dim>
							</port>
							<port id="1" precision="I32">
								<dim>1</dim>
							</port>
							<port id="2" precision="I32">
								<dim>1</dim>
							</port>
							<port id="3" precision="I32">
								<dim>1</dim>
							</port>
						</input>
						<output>
							<port id="4" precision="I32">
								<dim>1</dim>
							</port>
						</output>
					</layer>
					<layer id="194" name="Constant_10168" type="Const" version="opset1">
						<data element_type="i32" shape="1" offset="9" size="4" />
						<rt_info>
							<attribute name="fused_names" version="0" value="Constant_10168" />
						</rt_info>
						<output>
							<port id="0" precision="I32">
								<dim>1</dim>
							</port>
						</output>
					</layer>
					<layer id="195" name="Add_10169" type="Add" version="opset1">
						<data auto_broadcast="numpy" />
						<rt_info>
							<attribute name="fused_names" version="0" value="Add_10169" />
						</rt_info>
						<input>
							<port id="0" precision="I32" />
							<port id="1" precision="I32">
								<dim>1</dim>
							</port>
						</input>
						<output>
							<port id="2" precision="I32">
								<dim>1</dim>
							</port>
						</output>
					</layer>
					<layer id="196" name="Maximum_10170" type="Maximum" version="opset1">
						<data auto_broadcast="numpy" />
						<rt_info>
							<attribute name="fused_names" version="0" value="Maximum_10170" />
						</rt_info>
						<input>
							<port id="0" precision="I32">
								<dim>1</dim>
							</port>
							<port id="1" precision="I32">
								<dim>1</dim>
							</port>
						</input>
						<output>
							<port id="2" precision="I32">
								<dim>1</dim>
							</port>
						</output>
					</layer>
					<layer id="197" name="Subtract_10171" type="Subtract" version="opset1">
						<data auto_broadcast="numpy" />
						<rt_info>
							<attribute name="fused_names" version="0" value="Subtract_10171" />
						</rt_info>
						<input>
							<port id="0" precision="I32">
								<dim>1</dim>
							</port>
							<port id="1" precision="I32">
								<dim>1</dim>
							</port>
						</input>
						<output>
							<port id="2" precision="I32">
								<dim>1</dim>
							</port>
						</output>
					</layer>
					<layer id="198" name="Concat_10173" type="Concat" version="opset1">
						<data axis="0" />
						<rt_info>
							<attribute name="fused_names" version="0" value="Concat_10173" />
						</rt_info>
						<input>
							<port id="0" precision="I32">
								<dim>1</dim>
							</port>
							<port id="1" precision="I32">
								<dim>1</dim>
							</port>
						</input>
						<output>
							<port id="2" precision="I32">
								<dim>2</dim>
							</port>
						</output>
					</layer>
					<layer id="199" name="Broadcast_10174" type="Broadcast" version="opset3">
						<data mode="numpy" />
						<rt_info>
							<attribute name="fused_names" version="0" value="Broadcast_10174" />
						</rt_info>
						<input>
							<port id="0" precision="FP32" />
							<port id="1" precision="I32">
								<dim>2</dim>
							</port>
						</input>
						<output>
							<port id="2" precision="FP32">
								<dim>-1</dim>
								<dim>-1</dim>
							</port>
						</output>
					</layer>
					<layer id="200" name="Concat_10175" type="Concat" version="opset1">
						<data axis="0" />
						<rt_info>
							<attribute name="fused_names" version="0" value="Concat_10175" />
						</rt_info>
						<input>
							<port id="0" precision="FP32">
								<dim>-1</dim>
								<dim>-1</dim>
							</port>
							<port id="1" precision="FP32">
								<dim>-1</dim>
								<dim>-1</dim>
							</port>
						</input>
						<output>
							<port id="2" precision="FP32">
								<dim>-1</dim>
								<dim>-1</dim>
							</port>
						</output>
					</layer>
					<layer id="201" name="Unsqueeze_10176" type="Unsqueeze" version="opset1">
						<rt_info>
							<attribute name="fused_names" version="0" value="Slice_10166, Unsqueeze_10176" />
						</rt_info>
						<input>
							<port id="0" precision="I32" />
							<port id="1" precision="I32">
								<dim>1</dim>
							</port>
						</input>
						<output>
							<port id="2" precision="I32">
								<dim>1</dim>
							</port>
						</output>
					</layer>
					<layer id="202" name="Unsqueeze_10177" type="Unsqueeze" version="opset1">
						<rt_info>
							<attribute name="fused_names" version="0" value="Slice_10166, Unsqueeze_10177" />
						</rt_info>
						<input>
							<port id="0" precision="FP32">
								<dim>-1</dim>
							</port>
							<port id="1" precision="I32">
								<dim>1</dim>
							</port>
						</input>
						<output>
							<port id="2" precision="FP32">
								<dim>1</dim>
								<dim>-1</dim>
							</port>
						</output>
					</layer>
					<layer id="203" name="map/while/TensorArrayV2Write/TensorListSetItem" type="ScatterUpdate" version="opset3">
						<rt_info>
							<attribute name="fused_names" version="0" value="Slice_10166, map/while/TensorArrayV2Write/TensorListSetItem" />
						</rt_info>
						<input>
							<port id="0" precision="FP32">
								<dim>-1</dim>
								<dim>-1</dim>
							</port>
							<port id="1" precision="I32">
								<dim>1</dim>
							</port>
							<port id="2" precision="FP32">
								<dim>1</dim>
								<dim>-1</dim>
							</port>
							<port id="3" precision="I32">
								<dim>1</dim>
							</port>
						</input>
						<output>
							<port id="4" precision="FP32">
								<dim>-1</dim>
								<dim>-1</dim>
							</port>
						</output>
					</layer>
					<layer id="207" name="map_while_identity" type="Result" version="opset1">
						<rt_info>
							<attribute name="fused_names" version="0" value="map_while_identity" />
						</rt_info>
						<input>
							<port id="0" precision="I32" />
						</input>
					</layer>
					<layer id="206" name="map_while_identity_1" type="Result" version="opset1">
						<rt_info>
							<attribute name="fused_names" version="0" value="map_while_identity_1" />
						</rt_info>
						<input>
							<port id="0" precision="I32" />
						</input>
					</layer>
					<layer id="205" name="map_while_identity_2" type="Result" version="opset1">
						<rt_info>
							<attribute name="fused_names" version="0" value="map_while_identity_2" />
						</rt_info>
						<input>
							<port id="0" precision="I32" />
						</input>
					</layer>
					<layer id="204" name="map_while_identity_3" type="Result" version="opset1">
						<rt_info>
							<attribute name="fused_names" version="0" value="map_while_identity_3" />
						</rt_info>
						<input>
							<port id="0" precision="FP32">
								<dim>-1</dim>
								<dim>-1</dim>
							</port>
						</input>
					</layer>
					<layer id="69" name="map_while_identity_4" type="Result" version="opset1">
						<rt_info>
							<attribute name="fused_names" version="0" value="map_while_identity_4" />
						</rt_info>
						<input>
							<port id="0" precision="I32">
								<dim>-1</dim>
								<dim>3</dim>
							</port>
						</input>
					</layer>
					<layer id="15" name="map_while_tensorarrayv2read_tensorlistgetitem_map_tensorarrayunstack_tensorlistfromtensor" type="Result" version="opset1">
						<rt_info>
							<attribute name="fused_names" version="0" value="map_while_tensorarrayv2read_tensorlistgetitem_map_tensorarrayunstack_tensorlistfromtensor" />
						</rt_info>
						<input>
							<port id="0" precision="U8">
								<dim>1</dim>
								<dim>-1</dim>
								<dim>-1</dim>
								<dim>3</dim>
							</port>
						</input>
					</layer>
					<layer id="14" name="map_while_identity0" type="Result" version="opset1">
						<rt_info>
							<attribute name="fused_names" version="0" value="map_while_identity" />
						</rt_info>
						<input>
							<port id="0" precision="BOOL" />
						</input>
					</layer>
				</layers>
				<edges>
					<edge from-layer="0" from-port="0" to-layer="20" to-port="0" />
					<edge from-layer="0" from-port="0" to-layer="15" to-port="0" />
					<edge from-layer="1" from-port="0" to-layer="17" to-port="0" />
					<edge from-layer="2" from-port="0" to-layer="187" to-port="0" />
					<edge from-layer="3" from-port="0" to-layer="10" to-port="0" />
					<edge from-layer="3" from-port="0" to-layer="18" to-port="0" />
					<edge from-layer="4" from-port="0" to-layer="8" to-port="1" />
					<edge from-layer="4" from-port="0" to-layer="206" to-port="0" />
					<edge from-layer="5" from-port="0" to-layer="7" to-port="0" />
					<edge from-layer="6" from-port="0" to-layer="7" to-port="1" />
					<edge from-layer="7" from-port="2" to-layer="207" to-port="0" />
					<edge from-layer="7" from-port="2" to-layer="8" to-port="0" />
					<edge from-layer="8" from-port="2" to-layer="13" to-port="0" />
					<edge from-layer="9" from-port="0" to-layer="10" to-port="1" />
					<edge from-layer="10" from-port="2" to-layer="205" to-port="0" />
					<edge from-layer="10" from-port="2" to-layer="12" to-port="0" />
					<edge from-layer="11" from-port="0" to-layer="12" to-port="1" />
					<edge from-layer="12" from-port="2" to-layer="13" to-port="1" />
					<edge from-layer="13" from-port="2" to-layer="14" to-port="0" />
					<edge from-layer="16" from-port="0" to-layer="17" to-port="1" />
					<edge from-layer="17" from-port="2" to-layer="52" to-port="0" />
					<edge from-layer="18" from-port="1" to-layer="20" to-port="1" />
					<edge from-layer="18" from-port="1" to-layer="201" to-port="0" />
					<edge from-layer="18" from-port="1" to-layer="195" to-port="0" />
					<edge from-layer="18" from-port="1" to-layer="66" to-port="0" />
					<edge from-layer="18" from-port="1" to-layer="59" to-port="0" />
					<edge from-layer="19" from-port="0" to-layer="20" to-port="2" />
					<edge from-layer="20" from-port="3" to-layer="21" to-port="0" />
					<edge from-layer="21" from-port="1" to-layer="25" to-port="0" />
					<edge from-layer="22" from-port="0" to-layer="25" to-port="1" />
					<edge from-layer="23" from-port="0" to-layer="25" to-port="2" />
					<edge from-layer="24" from-port="0" to-layer="25" to-port="3" />
					<edge from-layer="25" from-port="4" to-layer="27" to-port="0" />
					<edge from-layer="26" from-port="0" to-layer="27" to-port="1" />
					<edge from-layer="27" from-port="2" to-layer="29" to-port="0" />
					<edge from-layer="28" from-port="0" to-layer="29" to-port="1" />
					<edge from-layer="29" from-port="2" to-layer="31" to-port="0" />
					<edge from-layer="30" from-port="0" to-layer="31" to-port="1" />
					<edge from-layer="31" from-port="2" to-layer="32" to-port="0" />
					<edge from-layer="31" from-port="2" to-layer="42" to-port="1" />
					<edge from-layer="32" from-port="1" to-layer="36" to-port="0" />
					<edge from-layer="32" from-port="1" to-layer="40" to-port="0" />
					<edge from-layer="33" from-port="0" to-layer="36" to-port="1" />
					<edge from-layer="34" from-port="0" to-layer="36" to-port="2" />
					<edge from-layer="35" from-port="0" to-layer="36" to-port="3" />
					<edge from-layer="36" from-port="4" to-layer="41" to-port="0" />
					<edge from-layer="37" from-port="0" to-layer="40" to-port="1" />
					<edge from-layer="38" from-port="0" to-layer="40" to-port="2" />
					<edge from-layer="39" from-port="0" to-layer="40" to-port="3" />
					<edge from-layer="40" from-port="4" to-layer="41" to-port="1" />
					<edge from-layer="41" from-port="2" to-layer="42" to-port="0" />
					<edge from-layer="42" from-port="2" to-layer="43" to-port="0" />
					<edge from-layer="42" from-port="2" to-layer="72" to-port="0" />
					<edge from-layer="43" from-port="1" to-layer="45" to-port="0" />
					<edge from-layer="43" from-port="1" to-layer="160" to-port="0" />
					<edge from-layer="43" from-port="1" to-layer="148" to-port="0" />
					<edge from-layer="43" from-port="1" to-layer="126" to-port="0" />
					<edge from-layer="43" from-port="1" to-layer="114" to-port="0" />
					<edge from-layer="43" from-port="1" to-layer="79" to-port="0" />
					<edge from-layer="43" from-port="1" to-layer="91" to-port="0" />
					<edge from-layer="44" from-port="0" to-layer="45" to-port="1" />
					<edge from-layer="45" from-port="2" to-layer="49" to-port="0" />
					<edge from-layer="46" from-port="0" to-layer="49" to-port="1" />
					<edge from-layer="47" from-port="0" to-layer="49" to-port="2" />
					<edge from-layer="48" from-port="0" to-layer="49" to-port="3" />
					<edge from-layer="49" from-port="4" to-layer="51" to-port="0" />
					<edge from-layer="50" from-port="0" to-layer="51" to-port="1" />
					<edge from-layer="51" from-port="2" to-layer="67" to-port="0" />
					<edge from-layer="51" from-port="2" to-layer="52" to-port="1" />
					<edge from-layer="52" from-port="2" to-layer="65" to-port="0" />
					<edge from-layer="52" from-port="2" to-layer="54" to-port="0" />
					<edge from-layer="53" from-port="0" to-layer="64" to-port="0" />
					<edge from-layer="54" from-port="1" to-layer="57" to-port="0" />
					<edge from-layer="55" from-port="0" to-layer="67" to-port="1" />
					<edge from-layer="55" from-port="0" to-layer="57" to-port="1" />
					<edge from-layer="55" from-port="0" to-layer="68" to-port="3" />
					<edge from-layer="55" from-port="0" to-layer="66" to-port="1" />
					<edge from-layer="56" from-port="0" to-layer="57" to-port="2" />
					<edge from-layer="56" from-port="0" to-layer="57" to-port="3" />
					<edge from-layer="57" from-port="4" to-layer="60" to-port="0" />
					<edge from-layer="57" from-port="4" to-layer="61" to-port="1" />
					<edge from-layer="58" from-port="0" to-layer="59" to-port="1" />
					<edge from-layer="59" from-port="2" to-layer="60" to-port="1" />
					<edge from-layer="60" from-port="2" to-layer="61" to-port="0" />
					<edge from-layer="61" from-port="2" to-layer="63" to-port="0" />
					<edge from-layer="62" from-port="0" to-layer="63" to-port="1" />
					<edge from-layer="63" from-port="2" to-layer="64" to-port="1" />
					<edge from-layer="64" from-port="2" to-layer="65" to-port="1" />
					<edge from-layer="65" from-port="2" to-layer="68" to-port="0" />
					<edge from-layer="66" from-port="2" to-layer="68" to-port="1" />
					<edge from-layer="67" from-port="2" to-layer="68" to-port="2" />
					<edge from-layer="68" from-port="4" to-layer="69" to-port="0" />
					<edge from-layer="70" from-port="0" to-layer="186" to-port="0" />
					<edge from-layer="71" from-port="0" to-layer="108" to-port="1" />
					<edge from-layer="71" from-port="0" to-layer="72" to-port="1" />
					<edge from-layer="71" from-port="0" to-layer="73" to-port="1" />
					<edge from-layer="71" from-port="0" to-layer="142" to-port="1" />
					<edge from-layer="72" from-port="3" to-layer="108" to-port="0" />
					<edge from-layer="72" from-port="4" to-layer="142" to-port="0" />
					<edge from-layer="72" from-port="2" to-layer="73" to-port="0" />
					<edge from-layer="73" from-port="2" to-layer="105" to-port="0" />
					<edge from-layer="74" from-port="0" to-layer="83" to-port="0" />
					<edge from-layer="75" from-port="0" to-layer="80" to-port="0" />
					<edge from-layer="76" from-port="0" to-layer="79" to-port="1" />
					<edge from-layer="77" from-port="0" to-layer="79" to-port="2" />
					<edge from-layer="78" from-port="0" to-layer="79" to-port="3" />
…
		<edge from-layer="1666" from-port="2" to-layer="1668" to-port="0" />
		<edge from-layer="1667" from-port="0" to-layer="1668" to-port="1" />
		<edge from-layer="1668" from-port="2" to-layer="1669" to-port="0" />
		<edge from-layer="1669" from-port="2" to-layer="1670" to-port="3" />
		<edge from-layer="1670" from-port="4" to-layer="1672" to-port="0" />
		<edge from-layer="1671" from-port="0" to-layer="1672" to-port="1" />
		<edge from-layer="1672" from-port="2" to-layer="1894" to-port="0" />
		<edge from-layer="1672" from-port="2" to-layer="1890" to-port="0" />
		<edge from-layer="1672" from-port="2" to-layer="1879" to-port="0" />
		<edge from-layer="1672" from-port="2" to-layer="1874" to-port="0" />
		<edge from-layer="1672" from-port="2" to-layer="1680" to-port="0" />
		<edge from-layer="1672" from-port="2" to-layer="1869" to-port="0" />
		<edge from-layer="1672" from-port="2" to-layer="1863" to-port="0" />
		<edge from-layer="1672" from-port="2" to-layer="1799" to-port="0" />
		<edge from-layer="1672" from-port="2" to-layer="1794" to-port="0" />
		<edge from-layer="1672" from-port="2" to-layer="1789" to-port="0" />
		<edge from-layer="1672" from-port="2" to-layer="1784" to-port="0" />
		<edge from-layer="1672" from-port="2" to-layer="1676" to-port="0" />
		<edge from-layer="1673" from-port="0" to-layer="1676" to-port="1" />
		<edge from-layer="1674" from-port="0" to-layer="1676" to-port="2" />
		<edge from-layer="1675" from-port="0" to-layer="1676" to-port="3" />
		<edge from-layer="1676" from-port="4" to-layer="1681" to-port="0" />
		<edge from-layer="1677" from-port="0" to-layer="1680" to-port="1" />
		<edge from-layer="1678" from-port="0" to-layer="1680" to-port="2" />
		<edge from-layer="1679" from-port="0" to-layer="1680" to-port="3" />
		<edge from-layer="1680" from-port="4" to-layer="1681" to-port="1" />
		<edge from-layer="1681" from-port="2" to-layer="1682" to-port="1" />
		<edge from-layer="1682" from-port="2" to-layer="1885" to-port="0" />
		<edge from-layer="1682" from-port="2" to-layer="1898" to-port="0" />
		<edge from-layer="1683" from-port="0" to-layer="1684" to-port="1" />
		<edge from-layer="1684" from-port="2" to-layer="1686" to-port="0" />
		<edge from-layer="1684" from-port="2" to-layer="1690" to-port="0" />
		<edge from-layer="1685" from-port="0" to-layer="1686" to-port="1" />
		<edge from-layer="1686" from-port="2" to-layer="1697" to-port="0" />
		<edge from-layer="1687" from-port="0" to-layer="1697" to-port="1" />
		<edge from-layer="1688" from-port="0" to-layer="1695" to-port="0" />
		<edge from-layer="1689" from-port="0" to-layer="1690" to-port="1" />
		<edge from-layer="1690" from-port="2" to-layer="1691" to-port="0" />
		<edge from-layer="1691" from-port="1" to-layer="1693" to-port="0" />
		<edge from-layer="1692" from-port="0" to-layer="1693" to-port="1" />
		<edge from-layer="1693" from-port="2" to-layer="1695" to-port="1" />
		<edge from-layer="1694" from-port="0" to-layer="1695" to-port="2" />
		<edge from-layer="1695" from-port="3" to-layer="1697" to-port="2" />
		<edge from-layer="1696" from-port="0" to-layer="1697" to-port="3" />
		<edge from-layer="1697" from-port="4" to-layer="1699" to-port="0" />
		<edge from-layer="1698" from-port="0" to-layer="1699" to-port="1" />
		<edge from-layer="1699" from-port="2" to-layer="1701" to-port="0" />
		<edge from-layer="1700" from-port="0" to-layer="1701" to-port="1" />
		<edge from-layer="1701" from-port="2" to-layer="1703" to-port="0" />
		<edge from-layer="1701" from-port="2" to-layer="1762" to-port="1" />
		<edge from-layer="1701" from-port="2" to-layer="1749" to-port="0" />
		<edge from-layer="1702" from-port="0" to-layer="1703" to-port="1" />
		<edge from-layer="1703" from-port="2" to-layer="1729" to-port="0" />
		<edge from-layer="1704" from-port="0" to-layer="1705" to-port="1" />
		<edge from-layer="1705" from-port="2" to-layer="1708" to-port="0" />
		<edge from-layer="1705" from-port="2" to-layer="1714" to-port="0" />
		<edge from-layer="1706" from-port="0" to-layer="1714" to-port="1" />
		<edge from-layer="1707" from-port="0" to-layer="1712" to-port="0" />
		<edge from-layer="1708" from-port="1" to-layer="1710" to-port="0" />
		<edge from-layer="1709" from-port="0" to-layer="1710" to-port="1" />
		<edge from-layer="1710" from-port="2" to-layer="1712" to-port="1" />
		<edge from-layer="1711" from-port="0" to-layer="1712" to-port="2" />
		<edge from-layer="1712" from-port="3" to-layer="1714" to-port="2" />
		<edge from-layer="1713" from-port="0" to-layer="1714" to-port="3" />
		<edge from-layer="1714" from-port="4" to-layer="1716" to-port="0" />
		<edge from-layer="1715" from-port="0" to-layer="1716" to-port="1" />
		<edge from-layer="1716" from-port="2" to-layer="1720" to-port="0" />
		<edge from-layer="1717" from-port="0" to-layer="1720" to-port="1" />
		<edge from-layer="1718" from-port="0" to-layer="1720" to-port="2" />
		<edge from-layer="1719" from-port="0" to-layer="1720" to-port="3" />
		<edge from-layer="1720" from-port="4" to-layer="1722" to-port="0" />
		<edge from-layer="1721" from-port="0" to-layer="1722" to-port="1" />
		<edge from-layer="1722" from-port="2" to-layer="1724" to-port="0" />
		<edge from-layer="1723" from-port="0" to-layer="1724" to-port="1" />
		<edge from-layer="1724" from-port="2" to-layer="1729" to-port="1" />
		<edge from-layer="1725" from-port="0" to-layer="1729" to-port="2" />
		<edge from-layer="1725" from-port="0" to-layer="1742" to-port="0" />
		<edge from-layer="1725" from-port="0" to-layer="1764" to-port="0" />
		<edge from-layer="1726" from-port="0" to-layer="1729" to-port="3" />
		<edge from-layer="1727" from-port="0" to-layer="1729" to-port="4" />
		<edge from-layer="1728" from-port="0" to-layer="1729" to-port="5" />
		<edge from-layer="1729" from-port="7" to-layer="1759" to-port="0" />
		<edge from-layer="1729" from-port="6" to-layer="1733" to-port="0" />
		<edge from-layer="1730" from-port="0" to-layer="1733" to-port="1" />
		<edge from-layer="1731" from-port="0" to-layer="1733" to-port="2" />
		<edge from-layer="1732" from-port="0" to-layer="1733" to-port="3" />
		<edge from-layer="1733" from-port="4" to-layer="1735" to-port="0" />
		<edge from-layer="1734" from-port="0" to-layer="1735" to-port="1" />
		<edge from-layer="1735" from-port="2" to-layer="1746" to-port="0" />
		<edge from-layer="1735" from-port="2" to-layer="1737" to-port="0" />
		<edge from-layer="1736" from-port="0" to-layer="1745" to-port="0" />
		<edge from-layer="1737" from-port="1" to-layer="1741" to-port="0" />
		<edge from-layer="1738" from-port="0" to-layer="1741" to-port="1" />
		<edge from-layer="1739" from-port="0" to-layer="1741" to-port="2" />
		<edge from-layer="1740" from-port="0" to-layer="1741" to-port="3" />
		<edge from-layer="1741" from-port="4" to-layer="1751" to-port="1" />
		<edge from-layer="1741" from-port="4" to-layer="1764" to-port="1" />
		<edge from-layer="1741" from-port="4" to-layer="1742" to-port="1" />
		<edge from-layer="1742" from-port="2" to-layer="1744" to-port="0" />
		<edge from-layer="1743" from-port="0" to-layer="1744" to-port="1" />
		<edge from-layer="1744" from-port="2" to-layer="1745" to-port="1" />
		<edge from-layer="1745" from-port="2" to-layer="1746" to-port="1" />
		<edge from-layer="1746" from-port="2" to-layer="2196" to-port="0" />
		<edge from-layer="1746" from-port="2" to-layer="1747" to-port="0" />
		<edge from-layer="1746" from-port="2" to-layer="1996" to-port="0" />
		<edge from-layer="1747" from-port="1" to-layer="1749" to-port="1" />
		<edge from-layer="1748" from-port="0" to-layer="1749" to-port="2" />
		<edge from-layer="1749" from-port="3" to-layer="1771" to-port="0" />
		<edge from-layer="1749" from-port="3" to-layer="1778" to-port="0" />
		<edge from-layer="1750" from-port="0" to-layer="1751" to-port="0" />
		<edge from-layer="1751" from-port="2" to-layer="1753" to-port="0" />
		<edge from-layer="1752" from-port="0" to-layer="1753" to-port="1" />
		<edge from-layer="1753" from-port="2" to-layer="1755" to-port="0" />
		<edge from-layer="1754" from-port="0" to-layer="1755" to-port="1" />
		<edge from-layer="1755" from-port="2" to-layer="1770" to-port="0" />
		<edge from-layer="1756" from-port="0" to-layer="1759" to-port="1" />
		<edge from-layer="1757" from-port="0" to-layer="1759" to-port="2" />
		<edge from-layer="1758" from-port="0" to-layer="1759" to-port="3" />
		<edge from-layer="1759" from-port="4" to-layer="1761" to-port="0" />
		<edge from-layer="1760" from-port="0" to-layer="1761" to-port="1" />
		<edge from-layer="1761" from-port="2" to-layer="1762" to-port="0" />
		<edge from-layer="1762" from-port="2" to-layer="1768" to-port="0" />
		<edge from-layer="1763" from-port="0" to-layer="1767" to-port="0" />
		<edge from-layer="1764" from-port="2" to-layer="1766" to-port="0" />
		<edge from-layer="1765" from-port="0" to-layer="1766" to-port="1" />
		<edge from-layer="1766" from-port="2" to-layer="1767" to-port="1" />
		<edge from-layer="1767" from-port="2" to-layer="1768" to-port="1" />
		<edge from-layer="1768" from-port="2" to-layer="1770" to-port="1" />
		<edge from-layer="1769" from-port="0" to-layer="1770" to-port="2" />
		<edge from-layer="1770" from-port="3" to-layer="1776" to-port="0" />
		<edge from-layer="1770" from-port="3" to-layer="1838" to-port="0" />
		<edge from-layer="1771" from-port="1" to-layer="1775" to-port="0" />
		<edge from-layer="1772" from-port="0" to-layer="1775" to-port="1" />
		<edge from-layer="1773" from-port="0" to-layer="1775" to-port="2" />
		<edge from-layer="1774" from-port="0" to-layer="1775" to-port="3" />
		<edge from-layer="1775" from-port="4" to-layer="1776" to-port="1" />
		<edge from-layer="1776" from-port="3" to-layer="2000" to-port="1" />
		<edge from-layer="1776" from-port="3" to-layer="2200" to-port="1" />
		<edge from-layer="1776" from-port="3" to-layer="1838" to-port="1" />
		<edge from-layer="1776" from-port="3" to-layer="2071" to-port="1" />
		<edge from-layer="1776" from-port="3" to-layer="1778" to-port="1" />
		<edge from-layer="1777" from-port="0" to-layer="1778" to-port="2" />
		<edge from-layer="1778" from-port="3" to-layer="1780" to-port="0" />
		<edge from-layer="1779" from-port="0" to-layer="1780" to-port="1" />
		<edge from-layer="1780" from-port="3" to-layer="1795" to-port="0" />
		<edge from-layer="1780" from-port="2" to-layer="1785" to-port="0" />
		<edge from-layer="1780" from-port="4" to-layer="1801" to-port="0" />
		<edge from-layer="1780" from-port="5" to-layer="1803" to-port="0" />
		<edge from-layer="1781" from-port="0" to-layer="1784" to-port="1" />
		<edge from-layer="1782" from-port="0" to-layer="1784" to-port="2" />
		<edge from-layer="1783" from-port="0" to-layer="1784" to-port="3" />
		<edge from-layer="1784" from-port="4" to-layer="1785" to-port="1" />
		<edge from-layer="1784" from-port="4" to-layer="1801" to-port="1" />
		<edge from-layer="1785" from-port="2" to-layer="1790" to-port="0" />
		<edge from-layer="1786" from-port="0" to-layer="1789" to-port="1" />
		<edge from-layer="1787" from-port="0" to-layer="1789" to-port="2" />
		<edge from-layer="1788" from-port="0" to-layer="1789" to-port="3" />
		<edge from-layer="1789" from-port="4" to-layer="1802" to-port="1" />
		<edge from-layer="1789" from-port="4" to-layer="1790" to-port="1" />
		<edge from-layer="1790" from-port="2" to-layer="1805" to-port="0" />
		<edge from-layer="1791" from-port="0" to-layer="1794" to-port="1" />
		<edge from-layer="1792" from-port="0" to-layer="1794" to-port="2" />
		<edge from-layer="1793" from-port="0" to-layer="1794" to-port="3" />
		<edge from-layer="1794" from-port="4" to-layer="1803" to-port="1" />
		<edge from-layer="1794" from-port="4" to-layer="1795" to-port="1" />
		<edge from-layer="1795" from-port="2" to-layer="1800" to-port="0" />
		<edge from-layer="1796" from-port="0" to-layer="1799" to-port="1" />
		<edge from-layer="1797" from-port="0" to-layer="1799" to-port="2" />
		<edge from-layer="1798" from-port="0" to-layer="1799" to-port="3" />
		<edge from-layer="1799" from-port="4" to-layer="1800" to-port="1" />
		<edge from-layer="1799" from-port="4" to-layer="1804" to-port="1" />
		<edge from-layer="1800" from-port="2" to-layer="1805" to-port="1" />
		<edge from-layer="1801" from-port="2" to-layer="1802" to-port="0" />
		<edge from-layer="1802" from-port="2" to-layer="1805" to-port="2" />
		<edge from-layer="1803" from-port="2" to-layer="1804" to-port="0" />
		<edge from-layer="1804" from-port="2" to-layer="1805" to-port="3" />
		<edge from-layer="1805" from-port="4" to-layer="1807" to-port="0" />
		<edge from-layer="1805" from-port="4" to-layer="1822" to-port="0" />
		<edge from-layer="1806" from-port="0" to-layer="1807" to-port="1" />
		<edge from-layer="1807" from-port="5" to-layer="1809" to-port="0" />
		<edge from-layer="1807" from-port="3" to-layer="1809" to-port="1" />
		<edge from-layer="1807" from-port="2" to-layer="1808" to-port="1" />
		<edge from-layer="1807" from-port="4" to-layer="1808" to-port="0" />
		<edge from-layer="1808" from-port="2" to-layer="1810" to-port="0" />
		<edge from-layer="1809" from-port="2" to-layer="1810" to-port="1" />
		<edge from-layer="1810" from-port="2" to-layer="1812" to-port="0" />
		<edge from-layer="1811" from-port="0" to-layer="1812" to-port="1" />
		<edge from-layer="1812" from-port="2" to-layer="1814" to-port="0" />
		<edge from-layer="1813" from-port="0" to-layer="1814" to-port="1" />
		<edge from-layer="1814" from-port="2" to-layer="1815" to-port="0" />
		<edge from-layer="1815" from-port="1" to-layer="1817" to-port="0" />
		<edge from-layer="1816" from-port="0" to-layer="1817" to-port="1" />
		<edge from-layer="1817" from-port="2" to-layer="1819" to-port="0" />
		<edge from-layer="1818" from-port="0" to-layer="1819" to-port="1" />
		<edge from-layer="1819" from-port="2" to-layer="1820" to-port="0" />
		<edge from-layer="1820" from-port="1" to-layer="2202" to-port="1" />
		<edge from-layer="1820" from-port="1" to-layer="2002" to-port="1" />
		<edge from-layer="1820" from-port="1" to-layer="2073" to-port="1" />
		<edge from-layer="1820" from-port="1" to-layer="1822" to-port="1" />
		<edge from-layer="1820" from-port="1" to-layer="1840" to-port="1" />
		<edge from-layer="1821" from-port="0" to-layer="1822" to-port="2" />
		<edge from-layer="1822" from-port="3" to-layer="1824" to-port="0" />
		<edge from-layer="1822" from-port="3" to-layer="1843" to-port="0" />
		<edge from-layer="1822" from-port="3" to-layer="1859" to-port="0" />
		<edge from-layer="1823" from-port="0" to-layer="1824" to-port="1" />
		<edge from-layer="1824" from-port="4" to-layer="1825" to-port="0" />
		<edge from-layer="1824" from-port="2" to-layer="1825" to-port="1" />
		<edge from-layer="1824" from-port="5" to-layer="1826" to-port="0" />
		<edge from-layer="1824" from-port="3" to-layer="1826" to-port="1" />
		<edge from-layer="1825" from-port="2" to-layer="1827" to-port="0" />
		<edge from-layer="1826" from-port="2" to-layer="1827" to-port="1" />
		<edge from-layer="1827" from-port="2" to-layer="1829" to-port="0" />
		<edge from-layer="1828" from-port="0" to-layer="1829" to-port="1" />
		<edge from-layer="1829" from-port="2" to-layer="1830" to-port="0" />
		<edge from-layer="1830" from-port="1" to-layer="1834" to-port="0" />
		<edge from-layer="1830" from-port="1" to-layer="1832" to-port="0" />
		<edge from-layer="1831" from-port="0" to-layer="1833" to-port="0" />
		<edge from-layer="1832" from-port="1" to-layer="1833" to-port="1" />
		<edge from-layer="1833" from-port="2" to-layer="1834" to-port="1" />
		<edge from-layer="1834" from-port="2" to-layer="1836" to-port="0" />
		<edge from-layer="1835" from-port="0" to-layer="1836" to-port="1" />
		<edge from-layer="1836" from-port="2" to-layer="1852" to-port="0" />
		<edge from-layer="1837" from-port="0" to-layer="1838" to-port="2" />
		<edge from-layer="1838" from-port="3" to-layer="1840" to-port="0" />
		<edge from-layer="1839" from-port="0" to-layer="1840" to-port="2" />
		<edge from-layer="1840" from-port="3" to-layer="1852" to-port="1" />
		<edge from-layer="1841" from-port="0" to-layer="1851" to-port="0" />
		<edge from-layer="1842" from-port="0" to-layer="1850" to-port="0" />
		<edge from-layer="1843" from-port="1" to-layer="1856" to-port="0" />
		<edge from-layer="1843" from-port="1" to-layer="1847" to-port="0" />
		<edge from-layer="1844" from-port="0" to-layer="1847" to-port="1" />
		<edge from-layer="1845" from-port="0" to-layer="1847" to-port="2" />
		<edge from-layer="1846" from-port="0" to-layer="1847" to-port="3" />
		<edge from-layer="1847" from-port="4" to-layer="1849" to-port="0" />
		<edge from-layer="1848" from-port="0" to-layer="1849" to-port="1" />
		<edge from-layer="1849" from-port="2" to-layer="1850" to-port="1" />
		<edge from-layer="1850" from-port="2" to-layer="1851" to-port="1" />
		<edge from-layer="1851" from-port="2" to-layer="1852" to-port="2" />
		<edge from-layer="1852" from-port="3" to-layer="1923" to-port="0" />
		<edge from-layer="1852" from-port="3" to-layer="1908" to-port="0" />
		<edge from-layer="1852" from-port="3" to-layer="1857" to-port="0" />
		<edge from-layer="1853" from-port="0" to-layer="1856" to-port="1" />
		<edge from-layer="1854" from-port="0" to-layer="1856" to-port="2" />
		<edge from-layer="1855" from-port="0" to-layer="1856" to-port="3" />
		<edge from-layer="1856" from-port="4" to-layer="1857" to-port="1" />
		<edge from-layer="1857" from-port="3" to-layer="1923" to-port="1" />
		<edge from-layer="1857" from-port="3" to-layer="2004" to-port="1" />
		<edge from-layer="1857" from-port="3" to-layer="1859" to-port="1" />
		<edge from-layer="1857" from-port="3" to-layer="2075" to-port="1" />
		<edge from-layer="1857" from-port="3" to-layer="2204" to-port="1" />
		<edge from-layer="1858" from-port="0" to-layer="1859" to-port="2" />
		<edge from-layer="1859" from-port="3" to-layer="1882" to-port="0" />
		<edge from-layer="1860" from-port="0" to-layer="1863" to-port="1" />
		<edge from-layer="1861" from-port="0" to-layer="1863" to-port="2" />
		<edge from-layer="1862" from-port="0" to-layer="1863" to-port="3" />
		<edge from-layer="1863" from-port="4" to-layer="1865" to-port="0" />
		<edge from-layer="1864" from-port="0" to-layer="1865" to-port="1" />
		<edge from-layer="1864" from-port="0" to-layer="1870" to-port="1" />
		<edge from-layer="1864" from-port="0" to-layer="1880" to-port="1" />
		<edge from-layer="1864" from-port="0" to-layer="1875" to-port="1" />
		<edge from-layer="1865" from-port="2" to-layer="1881" to-port="0" />
		<edge from-layer="1866" from-port="0" to-layer="1869" to-port="1" />
		<edge from-layer="1867" from-port="0" to-layer="1869" to-port="2" />
		<edge from-layer="1868" from-port="0" to-layer="1869" to-port="3" />
		<edge from-layer="1869" from-port="4" to-layer="1870" to-port="0" />
		<edge from-layer="1870" from-port="2" to-layer="1881" to-port="1" />
		<edge from-layer="1871" from-port="0" to-layer="1874" to-port="1" />
		<edge from-layer="1872" from-port="0" to-layer="1874" to-port="2" />
		<edge from-layer="1873" from-port="0" to-layer="1874" to-port="3" />
		<edge from-layer="1874" from-port="4" to-layer="1875" to-port="0" />
		<edge from-layer="1875" from-port="2" to-layer="1881" to-port="2" />
		<edge from-layer="1876" from-port="0" to-layer="1879" to-port="1" />
		<edge from-layer="1877" from-port="0" to-layer="1879" to-port="2" />
		<edge from-layer="1878" from-port="0" to-layer="1879" to-port="3" />
		<edge from-layer="1879" from-port="4" to-layer="1880" to-port="0" />
		<edge from-layer="1880" from-port="2" to-layer="1881" to-port="3" />
		<edge from-layer="1881" from-port="4" to-layer="1882" to-port="1" />
		<edge from-layer="1882" from-port="2" to-layer="1884" to-port="0" />
		<edge from-layer="1883" from-port="0" to-layer="1884" to-port="1" />
		<edge from-layer="1884" from-port="5" to-layer="1899" to-port="1" />
		<edge from-layer="1884" from-port="2" to-layer="1885" to-port="1" />
		<edge from-layer="1884" from-port="4" to-layer="1898" to-port="1" />
		<edge from-layer="1884" from-port="3" to-layer="1897" to-port="1" />
		<edge from-layer="1885" from-port="2" to-layer="1900" to-port="0" />
		<edge from-layer="1886" from-port="0" to-layer="1896" to-port="0" />
		<edge from-layer="1887" from-port="0" to-layer="1890" to-port="1" />
		<edge from-layer="1888" from-port="0" to-layer="1890" to-port="2" />
		<edge from-layer="1889" from-port="0" to-layer="1890" to-port="3" />
		<edge from-layer="1890" from-port="4" to-layer="1895" to-port="0" />
		<edge from-layer="1891" from-port="0" to-layer="1894" to-port="1" />
		<edge from-layer="1892" from-port="0" to-layer="1894" to-port="2" />
		<edge from-layer="1893" from-port="0" to-layer="1894" to-port="3" />
		<edge from-layer="1894" from-port="4" to-layer="1895" to-port="1" />
		<edge from-layer="1895" from-port="2" to-layer="1896" to-port="1" />
		<edge from-layer="1896" from-port="2" to-layer="1899" to-port="0" />
		<edge from-layer="1896" from-port="2" to-layer="1897" to-port="0" />
		<edge from-layer="1897" from-port="2" to-layer="1900" to-port="1" />
		<edge from-layer="1898" from-port="2" to-layer="1900" to-port="2" />
		<edge from-layer="1899" from-port="2" to-layer="1900" to-port="3" />
		<edge from-layer="1900" from-port="4" to-layer="1901" to-port="0" />
		<edge from-layer="1900" from-port="4" to-layer="2132" to-port="0" />
		<edge from-layer="1901" from-port="1" to-layer="1905" to-port="0" />
		<edge from-layer="1902" from-port="0" to-layer="1905" to-port="1" />
		<edge from-layer="1903" from-port="0" to-layer="1905" to-port="2" />
		<edge from-layer="1904" from-port="0" to-layer="1905" to-port="3" />
		<edge from-layer="1905" from-port="4" to-layer="1906" to-port="1" />
		<edge from-layer="1906" from-port="2" to-layer="1912" to-port="0" />
		<edge from-layer="1906" from-port="2" to-layer="1926" to-port="1" />
		<edge from-layer="1906" from-port="2" to-layer="1917" to-port="2" />
		<edge from-layer="1907" from-port="0" to-layer="1908" to-port="1" />
		<edge from-layer="1908" from-port="2" to-layer="1909" to-port="0" />
		<edge from-layer="1909" from-port="1" to-layer="1911" to-port="0" />
		<edge from-layer="1910" from-port="0" to-layer="1911" to-port="1" />
		<edge from-layer="1911" from-port="2" to-layer="1912" to-port="1" />
		<edge from-layer="1911" from-port="2" to-layer="1917" to-port="1" />
		<edge from-layer="1912" from-port="2" to-layer="1914" to-port="0" />
		<edge from-layer="1913" from-port="0" to-layer="1914" to-port="1" />
		<edge from-layer="1914" from-port="2" to-layer="1916" to-port="0" />
		<edge from-layer="1915" from-port="0" to-layer="1916" to-port="1" />
		<edge from-layer="1916" from-port="2" to-layer="1917" to-port="0" />
		<edge from-layer="1917" from-port="3" to-layer="1919" to-port="0" />
		<edge from-layer="1917" from-port="3" to-layer="1931" to-port="1" />
		<edge from-layer="1918" from-port="0" to-layer="1919" to-port="1" />
		<edge from-layer="1919" from-port="2" to-layer="1920" to-port="0" />
		<edge from-layer="1920" from-port="1" to-layer="1921" to-port="0" />
		<edge from-layer="1922" from-port="0" to-layer="1923" to-port="2" />
		<edge from-layer="1923" from-port="3" to-layer="1928" to-port="0" />
		<edge from-layer="1924" from-port="0" to-layer="1926" to-port="0" />
		<edge from-layer="1925" from-port="0" to-layer="1926" to-port="2" />
		<edge from-layer="1926" from-port="3" to-layer="2077" to-port="1" />
		<edge from-layer="1926" from-port="3" to-layer="2206" to-port="1" />
		<edge from-layer="1926" from-port="3" to-layer="1928" to-port="1" />
		<edge from-layer="1926" from-port="3" to-layer="2132" to-port="1" />
		<edge from-layer="1926" from-port="3" to-layer="2006" to-port="1" />
		<edge from-layer="1927" from-port="0" to-layer="1928" to-port="2" />
		<edge from-layer="1928" from-port="3" to-layer="1933" to-port="0" />
		<edge from-layer="1929" from-port="0" to-layer="1931" to-port="0" />
		<edge from-layer="1930" from-port="0" to-layer="1931" to-port="2" />
		<edge from-layer="1931" from-port="3" to-layer="2208" to-port="1" />
		<edge from-layer="1931" from-port="3" to-layer="1933" to-port="1" />
		<edge from-layer="1931" from-port="3" to-layer="2134" to-port="1" />
		<edge from-layer="1931" from-port="3" to-layer="2008" to-port="1" />
		<edge from-layer="1931" from-port="3" to-layer="2079" to-port="1" />
		<edge from-layer="1932" from-port="0" to-layer="1933" to-port="2" />
		<edge from-layer="1933" from-port="3" to-layer="1955" to-port="0" />
		<edge from-layer="1933" from-port="3" to-layer="1935" to-port="0" />
		<edge from-layer="1933" from-port="3" to-layer="1959" to-port="0" />
		<edge from-layer="1934" from-port="0" to-layer="1959" to-port="1" />
		<edge from-layer="1935" from-port="1" to-layer="1939" to-port="0" />
		<edge from-layer="1936" from-port="0" to-layer="1939" to-port="1" />
		<edge from-layer="1937" from-port="0" to-layer="1939" to-port="2" />
		<edge from-layer="1938" from-port="0" to-layer="1939" to-port="3" />
		<edge from-layer="1939" from-port="4" to-layer="1941" to-port="0" />
		<edge from-layer="1940" from-port="0" to-layer="1941" to-port="1" />
		<edge from-layer="1941" from-port="2" to-layer="1943" to-port="0" />
		<edge from-layer="1942" from-port="0" to-layer="1943" to-port="1" />
		<edge from-layer="1943" from-port="2" to-layer="1945" to-port="0" />
		<edge from-layer="1944" from-port="0" to-layer="1945" to-port="1" />
		<edge from-layer="1945" from-port="2" to-layer="1947" to-port="0" />
		<edge from-layer="1946" from-port="0" to-layer="1947" to-port="1" />
		<edge from-layer="1947" from-port="2" to-layer="1950" to-port="0" />
		<edge from-layer="1948" from-port="0" to-layer="1950" to-port="1" />
		<edge from-layer="1949" from-port="0" to-layer="1950" to-port="2" />
		<edge from-layer="1950" from-port="3" to-layer="1952" to-port="0" />
		<edge from-layer="1951" from-port="0" to-layer="1952" to-port="1" />
		<edge from-layer="1952" from-port="2" to-layer="1957" to-port="2" />
		<edge from-layer="1952" from-port="2" to-layer="1956" to-port="1" />
		<edge from-layer="1952" from-port="2" to-layer="1954" to-port="0" />
		<edge from-layer="1953" from-port="0" to-layer="1954" to-port="1" />
		<edge from-layer="1954" from-port="2" to-layer="1957" to-port="0" />
		<edge from-layer="1955" from-port="1" to-layer="1956" to-port="0" />
		<edge from-layer="1956" from-port="2" to-layer="1957" to-port="1" />
		<edge from-layer="1957" from-port="3" to-layer="1959" to-port="2" />
		<edge from-layer="1958" from-port="0" to-layer="1959" to-port="3" />
		<edge from-layer="1959" from-port="4" to-layer="1979" to-port="0" />
		<edge from-layer="1959" from-port="4" to-layer="1963" to-port="0" />
		<edge from-layer="1960" from-port="0" to-layer="1979" to-port="1" />
		<edge from-layer="1961" from-port="0" to-layer="1973" to-port="0" />
		<edge from-layer="1962" from-port="0" to-layer="1968" to-port="0" />
		<edge from-layer="1963" from-port="1" to-layer="1967" to-port="0" />
		<edge from-layer="1964" from-port="0" to-layer="1967" to-port="1" />
		<edge from-layer="1965" from-port="0" to-layer="1967" to-port="2" />
		<edge from-layer="1966" from-port="0" to-layer="1967" to-port="3" />
		<edge from-layer="1967" from-port="4" to-layer="1968" to-port="1" />
		<edge from-layer="1968" from-port="2" to-layer="1970" to-port="0" />
		<edge from-layer="1969" from-port="0" to-layer="1970" to-port="1" />
		<edge from-layer="1970" from-port="2" to-layer="1972" to-port="0" />
		<edge from-layer="1971" from-port="0" to-layer="1972" to-port="1" />
		<edge from-layer="1972" from-port="2" to-layer="1973" to-port="1" />
		<edge from-layer="1973" from-port="2" to-layer="1974" to-port="0" />
		<edge from-layer="1974" from-port="1" to-layer="1977" to-port="0" />
		<edge from-layer="1975" from-port="0" to-layer="1977" to-port="1" />
		<edge from-layer="1976" from-port="0" to-layer="1977" to-port="2" />
		<edge from-layer="1977" from-port="3" to-layer="1979" to-port="2" />
		<edge from-layer="1978" from-port="0" to-layer="1979" to-port="3" />
		<edge from-layer="1979" from-port="4" to-layer="1981" to-port="0" />
		<edge from-layer="1980" from-port="0" to-layer="1981" to-port="1" />
		<edge from-layer="1981" from-port="2" to-layer="1982" to-port="0" />
		<edge from-layer="1983" from-port="0" to-layer="1984" to-port="1" />
		<edge from-layer="1984" from-port="2" to-layer="1993" to-port="0" />
		<edge from-layer="1984" from-port="2" to-layer="1987" to-port="0" />
		<edge from-layer="1985" from-port="0" to-layer="1993" to-port="1" />
		<edge from-layer="1986" from-port="0" to-layer="1991" to-port="0" />
		<edge from-layer="1987" from-port="1" to-layer="1989" to-port="0" />
		<edge from-layer="1988" from-port="0" to-layer="1989" to-port="1" />
		<edge from-layer="1989" from-port="2" to-layer="1991" to-port="1" />
		<edge from-layer="1990" from-port="0" to-layer="1991" to-port="2" />
		<edge from-layer="1991" from-port="3" to-layer="1993" to-port="2" />
		<edge from-layer="1992" from-port="0" to-layer="1993" to-port="3" />
		<edge from-layer="1993" from-port="4" to-layer="1995" to-port="0" />
		<edge from-layer="1994" from-port="0" to-layer="1995" to-port="1" />
		<edge from-layer="1995" from-port="2" to-layer="1998" to-port="0" />
		<edge from-layer="1996" from-port="1" to-layer="1998" to-port="1" />
		<edge from-layer="1997" from-port="0" to-layer="1998" to-port="2" />
		<edge from-layer="1998" from-port="3" to-layer="2000" to-port="0" />
		<edge from-layer="1999" from-port="0" to-layer="2000" to-port="2" />
		<edge from-layer="2000" from-port="3" to-layer="2002" to-port="0" />
		<edge from-layer="2001" from-port="0" to-layer="2002" to-port="2" />
		<edge from-layer="2002" from-port="3" to-layer="2004" to-port="0" />
		<edge from-layer="2003" from-port="0" to-layer="2004" to-port="2" />
		<edge from-layer="2004" from-port="3" to-layer="2006" to-port="0" />
		<edge from-layer="2005" from-port="0" to-layer="2006" to-port="2" />
		<edge from-layer="2006" from-port="3" to-layer="2008" to-port="0" />
		<edge from-layer="2007" from-port="0" to-layer="2008" to-port="2" />
		<edge from-layer="2008" from-port="3" to-layer="2010" to-port="0" />
		<edge from-layer="2008" from-port="3" to-layer="2032" to-port="0" />
		<edge from-layer="2008" from-port="3" to-layer="2036" to-port="0" />
		<edge from-layer="2009" from-port="0" to-layer="2036" to-port="1" />
		<edge from-layer="2010" from-port="1" to-layer="2014" to-port="0" />
		<edge from-layer="2011" from-port="0" to-layer="2014" to-port="1" />
		<edge from-layer="2012" from-port="0" to-layer="2014" to-port="2" />
		<edge from-layer="2013" from-port="0" to-layer="2014" to-port="3" />
		<edge from-layer="2014" from-port="4" to-layer="2016" to-port="0" />
		<edge from-layer="2015" from-port="0" to-layer="2016" to-port="1" />
		<edge from-layer="2016" from-port="2" to-layer="2018" to-port="0" />
		<edge from-layer="2017" from-port="0" to-layer="2018" to-port="1" />
		<edge from-layer="2018" from-port="2" to-layer="2020" to-port="0" />
		<edge from-layer="2019" from-port="0" to-layer="2020" to-port="1" />
		<edge from-layer="2020" from-port="2" to-layer="2022" to-port="0" />
		<edge from-layer="2021" from-port="0" to-layer="2022" to-port="1" />
		<edge from-layer="2022" from-port="2" to-layer="2025" to-port="0" />
		<edge from-layer="2023" from-port="0" to-layer="2025" to-port="1" />
		<edge from-layer="2024" from-port="0" to-layer="2025" to-port="2" />
		<edge from-layer="2025" from-port="3" to-layer="2027" to-port="0" />
		<edge from-layer="2026" from-port="0" to-layer="2027" to-port="1" />
		<edge from-layer="2027" from-port="2" to-layer="2029" to-port="0" />
		<edge from-layer="2028" from-port="0" to-layer="2029" to-port="1" />
		<edge from-layer="2029" from-port="2" to-layer="2031" to-port="0" />
		<edge from-layer="2029" from-port="2" to-layer="2034" to-port="2" />
		<edge from-layer="2029" from-port="2" to-layer="2033" to-port="1" />
		<edge from-layer="2030" from-port="0" to-layer="2031" to-port="1" />
		<edge from-layer="2031" from-port="2" to-layer="2034" to-port="0" />
		<edge from-layer="2032" from-port="1" to-layer="2033" to-port="0" />
		<edge from-layer="2033" from-port="2" to-layer="2034" to-port="1" />
		<edge from-layer="2034" from-port="3" to-layer="2036" to-port="2" />
		<edge from-layer="2035" from-port="0" to-layer="2036" to-port="3" />
		<edge from-layer="2036" from-port="4" to-layer="2065" to-port="0" />
		<edge from-layer="2036" from-port="4" to-layer="2039" to-port="0" />
		<edge from-layer="2037" from-port="0" to-layer="2057" to-port="0" />
		<edge from-layer="2038" from-port="0" to-layer="2044" to-port="0" />
		<edge from-layer="2039" from-port="1" to-layer="2043" to-port="0" />
		<edge from-layer="2039" from-port="1" to-layer="2051" to-port="0" />
		<edge from-layer="2040" from-port="0" to-layer="2043" to-port="1" />
		<edge from-layer="2041" from-port="0" to-layer="2043" to-port="2" />
		<edge from-layer="2042" from-port="0" to-layer="2043" to-port="3" />
		<edge from-layer="2043" from-port="4" to-layer="2044" to-port="1" />
		<edge from-layer="2044" from-port="2" to-layer="2046" to-port="0" />
		<edge from-layer="2045" from-port="0" to-layer="2053" to-port="1" />
		<edge from-layer="2045" from-port="0" to-layer="2046" to-port="1" />
		<edge from-layer="2046" from-port="2" to-layer="2054" to-port="0" />
		<edge from-layer="2047" from-port="0" to-layer="2052" to-port="0" />
		<edge from-layer="2048" from-port="0" to-layer="2051" to-port="1" />
		<edge from-layer="2049" from-port="0" to-layer="2051" to-port="2" />
		<edge from-layer="2050" from-port="0" to-layer="2051" to-port="3" />
		<edge from-layer="2051" from-port="4" to-layer="2052" to-port="1" />
		<edge from-layer="2052" from-port="2" to-layer="2053" to-port="0" />
		<edge from-layer="2053" from-port="2" to-layer="2054" to-port="1" />
		<edge from-layer="2054" from-port="2" to-layer="2056" to-port="0" />
		<edge from-layer="2055" from-port="0" to-layer="2056" to-port="1" />
		<edge from-layer="2056" from-port="2" to-layer="2057" to-port="1" />
		<edge from-layer="2057" from-port="2" to-layer="2058" to-port="0" />
		<edge from-layer="2058" from-port="1" to-layer="2063" to-port="0" />
		<edge from-layer="2058" from-port="1" to-layer="2061" to-port="0" />
		<edge from-layer="2059" from-port="0" to-layer="2061" to-port="1" />
		<edge from-layer="2060" from-port="0" to-layer="2061" to-port="2" />
		<edge from-layer="2060" from-port="0" to-layer="2063" to-port="2" />
		<edge from-layer="2061" from-port="3" to-layer="2065" to-port="1" />
		<edge from-layer="2062" from-port="0" to-layer="2063" to-port="1" />
		<edge from-layer="2063" from-port="3" to-layer="2065" to-port="2" />
		<edge from-layer="2064" from-port="0" to-layer="2065" to-port="3" />
		<edge from-layer="2065" from-port="4" to-layer="2067" to-port="0" />
		<edge from-layer="2066" from-port="0" to-layer="2067" to-port="1" />
		<edge from-layer="2067" from-port="2" to-layer="2068" to-port="0" />
		<edge from-layer="2069" from-port="0" to-layer="2071" to-port="0" />
		<edge from-layer="2070" from-port="0" to-layer="2071" to-port="2" />
		<edge from-layer="2071" from-port="3" to-layer="2073" to-port="0" />
		<edge from-layer="2072" from-port="0" to-layer="2073" to-port="2" />
		<edge from-layer="2073" from-port="3" to-layer="2075" to-port="0" />
		<edge from-layer="2074" from-port="0" to-layer="2075" to-port="2" />
		<edge from-layer="2075" from-port="3" to-layer="2077" to-port="0" />
		<edge from-layer="2076" from-port="0" to-layer="2077" to-port="2" />
		<edge from-layer="2077" from-port="3" to-layer="2079" to-port="0" />
		<edge from-layer="2078" from-port="0" to-layer="2079" to-port="2" />
		<edge from-layer="2079" from-port="3" to-layer="2081" to-port="0" />
		<edge from-layer="2079" from-port="3" to-layer="2101" to-port="0" />
		<edge from-layer="2079" from-port="3" to-layer="2105" to-port="0" />
		<edge from-layer="2080" from-port="0" to-layer="2105" to-port="1" />
		<edge from-layer="2081" from-port="1" to-layer="2085" to-port="0" />
		<edge from-layer="2082" from-port="0" to-layer="2085" to-port="1" />
		<edge from-layer="2083" from-port="0" to-layer="2085" to-port="2" />
		<edge from-layer="2084" from-port="0" to-layer="2085" to-port="3" />
		<edge from-layer="2085" from-port="4" to-layer="2087" to-port="0" />
		<edge from-layer="2086" from-port="0" to-layer="2087" to-port="1" />
		<edge from-layer="2087" from-port="2" to-layer="2089" to-port="0" />
		<edge from-layer="2088" from-port="0" to-layer="2089" to-port="1" />
		<edge from-layer="2089" from-port="2" to-layer="2091" to-port="0" />
		<edge from-layer="2090" from-port="0" to-layer="2091" to-port="1" />
		<edge from-layer="2091" from-port="2" to-layer="2093" to-port="0" />
		<edge from-layer="2092" from-port="0" to-layer="2093" to-port="1" />
		<edge from-layer="2093" from-port="2" to-layer="2096" to-port="0" />
		<edge from-layer="2094" from-port="0" to-layer="2096" to-port="1" />
		<edge from-layer="2095" from-port="0" to-layer="2096" to-port="2" />
		<edge from-layer="2096" from-port="3" to-layer="2098" to-port="0" />
		<edge from-layer="2097" from-port="0" to-layer="2098" to-port="1" />
		<edge from-layer="2098" from-port="2" to-layer="2103" to-port="2" />
		<edge from-layer="2098" from-port="2" to-layer="2100" to-port="0" />
		<edge from-layer="2098" from-port="2" to-layer="2102" to-port="1" />
		<edge from-layer="2099" from-port="0" to-layer="2100" to-port="1" />
		<edge from-layer="2100" from-port="2" to-layer="2103" to-port="0" />
		<edge from-layer="2101" from-port="1" to-layer="2102" to-port="0" />
		<edge from-layer="2102" from-port="2" to-layer="2103" to-port="1" />
		<edge from-layer="2103" from-port="3" to-layer="2105" to-port="2" />
		<edge from-layer="2104" from-port="0" to-layer="2105" to-port="3" />
		<edge from-layer="2105" from-port="4" to-layer="2109" to-port="0" />
		<edge from-layer="2105" from-port="4" to-layer="2125" to-port="0" />
		<edge from-layer="2106" from-port="0" to-layer="2125" to-port="1" />
		<edge from-layer="2107" from-port="0" to-layer="2119" to-port="0" />
		<edge from-layer="2108" from-port="0" to-layer="2114" to-port="0" />
		<edge from-layer="2109" from-port="1" to-layer="2113" to-port="0" />
		<edge from-layer="2110" from-port="0" to-layer="2113" to-port="1" />
		<edge from-layer="2111" from-port="0" to-layer="2113" to-port="2" />
		<edge from-layer="2112" from-port="0" to-layer="2113" to-port="3" />
		<edge from-layer="2113" from-port="4" to-layer="2114" to-port="1" />
		<edge from-layer="2114" from-port="2" to-layer="2116" to-port="0" />
		<edge from-layer="2115" from-port="0" to-layer="2116" to-port="1" />
		<edge from-layer="2116" from-port="2" to-layer="2118" to-port="0" />
		<edge from-layer="2117" from-port="0" to-layer="2118" to-port="1" />
		<edge from-layer="2118" from-port="2" to-layer="2119" to-port="1" />
		<edge from-layer="2119" from-port="2" to-layer="2120" to-port="0" />
		<edge from-layer="2120" from-port="1" to-layer="2123" to-port="0" />
		<edge from-layer="2121" from-port="0" to-layer="2123" to-port="1" />
		<edge from-layer="2122" from-port="0" to-layer="2123" to-port="2" />
		<edge from-layer="2123" from-port="3" to-layer="2125" to-port="2" />
		<edge from-layer="2124" from-port="0" to-layer="2125" to-port="3" />
		<edge from-layer="2125" from-port="4" to-layer="2127" to-port="0" />
		<edge from-layer="2126" from-port="0" to-layer="2127" to-port="1" />
		<edge from-layer="2127" from-port="2" to-layer="2129" to-port="0" />
		<edge from-layer="2128" from-port="0" to-layer="2129" to-port="1" />
		<edge from-layer="2129" from-port="2" to-layer="2130" to-port="0" />
		<edge from-layer="2131" from-port="0" to-layer="2132" to-port="2" />
		<edge from-layer="2132" from-port="3" to-layer="2134" to-port="0" />
		<edge from-layer="2133" from-port="0" to-layer="2134" to-port="2" />
		<edge from-layer="2134" from-port="3" to-layer="2136" to-port="0" />
		<edge from-layer="2134" from-port="3" to-layer="2162" to-port="0" />
		<edge from-layer="2134" from-port="3" to-layer="2158" to-port="0" />
		<edge from-layer="2135" from-port="0" to-layer="2162" to-port="1" />
		<edge from-layer="2136" from-port="1" to-layer="2140" to-port="0" />
		<edge from-layer="2137" from-port="0" to-layer="2140" to-port="1" />
		<edge from-layer="2138" from-port="0" to-layer="2140" to-port="2" />
		<edge from-layer="2139" from-port="0" to-layer="2140" to-port="3" />
		<edge from-layer="2140" from-port="4" to-layer="2142" to-port="0" />
		<edge from-layer="2141" from-port="0" to-layer="2142" to-port="1" />
		<edge from-layer="2142" from-port="2" to-layer="2144" to-port="0" />
		<edge from-layer="2143" from-port="0" to-layer="2144" to-port="1" />
		<edge from-layer="2144" from-port="2" to-layer="2146" to-port="0" />
		<edge from-layer="2145" from-port="0" to-layer="2146" to-port="1" />
		<edge from-layer="2146" from-port="2" to-layer="2148" to-port="0" />
		<edge from-layer="2147" from-port="0" to-layer="2148" to-port="1" />
		<edge from-layer="2148" from-port="2" to-layer="2151" to-port="0" />
		<edge from-layer="2149" from-port="0" to-layer="2151" to-port="1" />
		<edge from-layer="2150" from-port="0" to-layer="2151" to-port="2" />
		<edge from-layer="2151" from-port="3" to-layer="2153" to-port="0" />
		<edge from-layer="2152" from-port="0" to-layer="2153" to-port="1" />
		<edge from-layer="2153" from-port="2" to-layer="2155" to-port="0" />
		<edge from-layer="2154" from-port="0" to-layer="2155" to-port="1" />
		<edge from-layer="2155" from-port="2" to-layer="2159" to-port="1" />
		<edge from-layer="2155" from-port="2" to-layer="2160" to-port="2" />
		<edge from-layer="2155" from-port="2" to-layer="2157" to-port="0" />
		<edge from-layer="2156" from-port="0" to-layer="2157" to-port="1" />
		<edge from-layer="2157" from-port="2" to-layer="2160" to-port="0" />
		<edge from-layer="2158" from-port="1" to-layer="2159" to-port="0" />
		<edge from-layer="2159" from-port="2" to-layer="2160" to-port="1" />
		<edge from-layer="2160" from-port="3" to-layer="2162" to-port="2" />
		<edge from-layer="2161" from-port="0" to-layer="2162" to-port="3" />
		<edge from-layer="2162" from-port="4" to-layer="2165" to-port="0" />
		<edge from-layer="2162" from-port="4" to-layer="2191" to-port="0" />
		<edge from-layer="2163" from-port="0" to-layer="2183" to-port="0" />
		<edge from-layer="2164" from-port="0" to-layer="2170" to-port="0" />
		<edge from-layer="2165" from-port="1" to-layer="2169" to-port="0" />
		<edge from-layer="2165" from-port="1" to-layer="2177" to-port="0" />
		<edge from-layer="2166" from-port="0" to-layer="2169" to-port="1" />
		<edge from-layer="2167" from-port="0" to-layer="2169" to-port="2" />
		<edge from-layer="2168" from-port="0" to-layer="2169" to-port="3" />
		<edge from-layer="2169" from-port="4" to-layer="2170" to-port="1" />
		<edge from-layer="2170" from-port="2" to-layer="2172" to-port="0" />
		<edge from-layer="2171" from-port="0" to-layer="2172" to-port="1" />
		<edge from-layer="2171" from-port="0" to-layer="2179" to-port="1" />
		<edge from-layer="2172" from-port="2" to-layer="2180" to-port="0" />
		<edge from-layer="2173" from-port="0" to-layer="2178" to-port="0" />
		<edge from-layer="2174" from-port="0" to-layer="2177" to-port="1" />
		<edge from-layer="2175" from-port="0" to-layer="2177" to-port="2" />
		<edge from-layer="2176" from-port="0" to-layer="2177" to-port="3" />
		<edge from-layer="2177" from-port="4" to-layer="2178" to-port="1" />
		<edge from-layer="2178" from-port="2" to-layer="2179" to-port="0" />
		<edge from-layer="2179" from-port="2" to-layer="2180" to-port="1" />
		<edge from-layer="2180" from-port="2" to-layer="2182" to-port="0" />
		<edge from-layer="2181" from-port="0" to-layer="2182" to-port="1" />
		<edge from-layer="2182" from-port="2" to-layer="2183" to-port="1" />
		<edge from-layer="2183" from-port="2" to-layer="2184" to-port="0" />
		<edge from-layer="2184" from-port="1" to-layer="2187" to-port="0" />
		<edge from-layer="2184" from-port="1" to-layer="2189" to-port="0" />
		<edge from-layer="2185" from-port="0" to-layer="2187" to-port="1" />
		<edge from-layer="2186" from-port="0" to-layer="2189" to-port="2" />
		<edge from-layer="2186" from-port="0" to-layer="2187" to-port="2" />
		<edge from-layer="2187" from-port="3" to-layer="2191" to-port="1" />
		<edge from-layer="2188" from-port="0" to-layer="2189" to-port="1" />
		<edge from-layer="2189" from-port="3" to-layer="2191" to-port="2" />
		<edge from-layer="2190" from-port="0" to-layer="2191" to-port="3" />
		<edge from-layer="2191" from-port="4" to-layer="2193" to-port="0" />
		<edge from-layer="2192" from-port="0" to-layer="2193" to-port="1" />
		<edge from-layer="2193" from-port="2" to-layer="2194" to-port="0" />
		<edge from-layer="2195" from-port="0" to-layer="2198" to-port="0" />
		<edge from-layer="2196" from-port="1" to-layer="2198" to-port="1" />
		<edge from-layer="2197" from-port="0" to-layer="2198" to-port="2" />
		<edge from-layer="2198" from-port="3" to-layer="2200" to-port="0" />
		<edge from-layer="2199" from-port="0" to-layer="2200" to-port="2" />
		<edge from-layer="2200" from-port="3" to-layer="2202" to-port="0" />
		<edge from-layer="2201" from-port="0" to-layer="2202" to-port="2" />
		<edge from-layer="2202" from-port="3" to-layer="2204" to-port="0" />
		<edge from-layer="2203" from-port="0" to-layer="2204" to-port="2" />
		<edge from-layer="2204" from-port="3" to-layer="2206" to-port="0" />
		<edge from-layer="2205" from-port="0" to-layer="2206" to-port="2" />
		<edge from-layer="2206" from-port="3" to-layer="2208" to-port="0" />
		<edge from-layer="2207" from-port="0" to-layer="2208" to-port="2" />
		<edge from-layer="2208" from-port="3" to-layer="2210" to-port="0" />
		<edge from-layer="2208" from-port="3" to-layer="2234" to-port="0" />
		<edge from-layer="2208" from-port="3" to-layer="2230" to-port="0" />
		<edge from-layer="2209" from-port="0" to-layer="2234" to-port="1" />
		<edge from-layer="2210" from-port="1" to-layer="2214" to-port="0" />
		<edge from-layer="2211" from-port="0" to-layer="2214" to-port="1" />
		<edge from-layer="2212" from-port="0" to-layer="2214" to-port="2" />
		<edge from-layer="2213" from-port="0" to-layer="2214" to-port="3" />
		<edge from-layer="2214" from-port="4" to-layer="2216" to-port="0" />
		<edge from-layer="2215" from-port="0" to-layer="2216" to-port="1" />
		<edge from-layer="2216" from-port="2" to-layer="2218" to-port="0" />
		<edge from-layer="2217" from-port="0" to-layer="2218" to-port="1" />
		<edge from-layer="2218" from-port="2" to-layer="2220" to-port="0" />
		<edge from-layer="2219" from-port="0" to-layer="2220" to-port="1" />
		<edge from-layer="2220" from-port="2" to-layer="2222" to-port="0" />
		<edge from-layer="2221" from-port="0" to-layer="2222" to-port="1" />
		<edge from-layer="2222" from-port="2" to-layer="2225" to-port="0" />
		<edge from-layer="2223" from-port="0" to-layer="2225" to-port="1" />
		<edge from-layer="2224" from-port="0" to-layer="2225" to-port="2" />
		<edge from-layer="2225" from-port="3" to-layer="2227" to-port="0" />
		<edge from-layer="2226" from-port="0" to-layer="2227" to-port="1" />
		<edge from-layer="2227" from-port="2" to-layer="2229" to-port="0" />
		<edge from-layer="2227" from-port="2" to-layer="2232" to-port="2" />
		<edge from-layer="2227" from-port="2" to-layer="2231" to-port="1" />
		<edge from-layer="2228" from-port="0" to-layer="2229" to-port="1" />
		<edge from-layer="2229" from-port="2" to-layer="2232" to-port="0" />
		<edge from-layer="2230" from-port="1" to-layer="2231" to-port="0" />
		<edge from-layer="2231" from-port="2" to-layer="2232" to-port="1" />
		<edge from-layer="2232" from-port="3" to-layer="2234" to-port="2" />
		<edge from-layer="2233" from-port="0" to-layer="2234" to-port="3" />
		<edge from-layer="2234" from-port="4" to-layer="2238" to-port="0" />
		<edge from-layer="2234" from-port="4" to-layer="2254" to-port="0" />
		<edge from-layer="2235" from-port="0" to-layer="2254" to-port="1" />
		<edge from-layer="2236" from-port="0" to-layer="2248" to-port="0" />
		<edge from-layer="2237" from-port="0" to-layer="2243" to-port="0" />
		<edge from-layer="2238" from-port="1" to-layer="2242" to-port="0" />
		<edge from-layer="2239" from-port="0" to-layer="2242" to-port="1" />
		<edge from-layer="2240" from-port="0" to-layer="2242" to-port="2" />
		<edge from-layer="2241" from-port="0" to-layer="2242" to-port="3" />
		<edge from-layer="2242" from-port="4" to-layer="2243" to-port="1" />
		<edge from-layer="2243" from-port="2" to-layer="2245" to-port="0" />
		<edge from-layer="2244" from-port="0" to-layer="2245" to-port="1" />
		<edge from-layer="2245" from-port="2" to-layer="2247" to-port="0" />
		<edge from-layer="2246" from-port="0" to-layer="2247" to-port="1" />
		<edge from-layer="2247" from-port="2" to-layer="2248" to-port="1" />
		<edge from-layer="2248" from-port="2" to-layer="2249" to-port="0" />
		<edge from-layer="2249" from-port="1" to-layer="2252" to-port="0" />
		<edge from-layer="2250" from-port="0" to-layer="2252" to-port="1" />
		<edge from-layer="2251" from-port="0" to-layer="2252" to-port="2" />
		<edge from-layer="2252" from-port="3" to-layer="2254" to-port="2" />
		<edge from-layer="2253" from-port="0" to-layer="2254" to-port="3" />
		<edge from-layer="2254" from-port="4" to-layer="2256" to-port="0" />
		<edge from-layer="2255" from-port="0" to-layer="2256" to-port="1" />
		<edge from-layer="2256" from-port="2" to-layer="2257" to-port="0" />
		<edge from-layer="2257" from-port="1" to-layer="2258" to-port="0" />
		<edge from-layer="2258" from-port="1" to-layer="2259" to-port="0" />
	</edges>
	<rt_info>
		<MO_version value="2023.0.0-10926-b4452d56304-releases/2023/0" />
		<Runtime_version value="2023.0.0-10926-b4452d56304-releases/2023/0" />
		<conversion_parameters>
			<is_python_api_used value="True" />
			<saved_model_dir value="DIR" />
		</conversion_parameters>
		<legacy_frontend value="False" />
	</rt_info>
</net>
